save_adam_61.pt (torch_old, 151335 bytes, 8 tensors)

weight f4 [32, 3, 5, 5]
000000 7a 4c b7 bd d7 a8 fe bd f2 25 c2 bd 9b 28 f0 3b
       -0.089501336 -0.124345474 -0.09479894 0.0073290593
000010 d4 d5 c1 3e 78 19 b0 bc b3 b9 61 be 01 c4 9b 3c
       0.3785845 -0.02149652 -0.22043495 0.01901436
000020 7d 31 fa bd da e1 1f 3e 97 25 c1 be 14 53 c6 bd
       -0.122164704 0.156135 -0.3772399 -0.09683815
000030 0b df c1 be 8e 38 be be 2f 77 19 be a9 91 c2 be
       -0.3786548 -0.37152523 -0.14986871 -0.38001755
000040 1a 76 5d 3d cd f0 27 be 02 b5 8b bd e5 95 28 bd
       0.05406771 -0.16400452 -0.06821634 -0.041158576
000050 06 e5 2d be 3e 43 3a 3c 04 f7 62 be 69 44 b7 bd
       -0.16981897 0.011368571 -0.22164541 -0.08948595
000060 5a ce ac bd 3e 44 9a 3d 1a d5 c7 bd 19 ad 0d be
       -0.08437796 0.075325474 -0.09757443 -0.13835563
000070 98 4f 12 be 9e a3 80 3e 21 ee 92 3e 6b 5e 63 3c
       -0.14288175 0.2512483 0.28697303 0.0138774915
000080 ac df c1 bb 85 34 03 3d da 06 22 3e 04 56 17 3e
       -0.0059165563 0.03203251 0.15822926 0.14778906
000090 9a 57 73 3e 38 d0 69 bd 77 d0 be bd 15 1d 83 bd
       0.23763886 -0.05708334 -0.09317105 -0.06402031
0000a0 2d 78 05 be a3 7b 8d 3c 6a cf 0e 3c ff 0e bd 3d
       -0.13034125 0.017270869 0.008716444 0.09231376
0000b0 3f 63 c7 3d 25 4a 8a bd 07 5f 91 3d 6a a4 2b be
       0.097357266 -0.06752423 0.07098203 -0.16761938
0000c0 7c 8f 49 3e 64 6f 02 be fe 63 ce be c1 af b2 3c
       0.19683641 -0.12737805 -0.40310663 0.021812322
0000d0 7b fd 61 3e ef b2 05 3e 21 11 a6 3d 5e 28 0f 3e
       0.22069351 0.13056539 0.08108736 0.13980243
0000e0 a3 85 22 3d 16 f6 46 3e 3f 96 9e 3e 6e c5 93 bc
       0.039678227 0.19429812 0.30974004 -0.018038478
0000f0 a5 12 7f 3e da 05 ea 3d f2 97 03 3e 76 8d 63 3d
       0.24909456 0.11426897 0.12850931 0.05555483
000100 f9 bb d4 bd 90 8f a1 3c 8f 32 e8 3d 45 25 94 3e
       -0.103874154 0.019721776 0.11337768 0.28934684
000110 7a fa a5 3e 4c 99 42 3e ac 3b ca 3c 3f 51 3d 3e
       0.3241766 0.1900379 0.024686657 0.18488024
000120 1c 64 b5 bd 21 20 5b 3e ed 35 a6 bd d4 df 48 be
       -0.08856985 0.21398975 -0.08115754 -0.19616634
000130 6c af 06 3f e2 e7 06 bf 60 83 dd 3e d7 df 8d be
       0.5261142 -0.52697575 0.43264294 -0.2770984
000140 23 f2 e8 bd 27 ec 00 3f 72 fb 20 bf 26 3f 29 3f
       -0.11374309 0.5036034 -0.62883675 0.6611198
000150 8c 3b 9c be d6 56 76 be fa 2e 58 3e a3 cb 1f bf
       -0.3051418 -0.24056563 0.2111167 -0.624201
000160 9a 42 ec 3e a6 53 93 be 91 a9 0f be ef 4a a2 3e
       0.46144563 -0.28774756 -0.14029528 0.31697795
000170 c4 c0 43 3d c2 ec a7 3e c5 07 6b be de f4 e5 bd
       0.047791258 0.3279782 -0.22952183 -0.11228345
000180 4f 9b a2 3d ec cb b9 3d bd 97 d5 3c df a4 a0 bc
       0.07939779 0.09072098 0.026073331 -0.019609867
000190 d4 d5 06 be 11 ba 5f 3e cc 23 5b bf 53 0c e8 3e
       -0.13167506 0.21848322 -0.85601497 0.45321903
0001a0 b9 58 67 bd 59 39 e6 3d 3c 27 60 3e 8a 6b 43 bf
       -0.056481097 0.11241407 0.21889967 -0.76335967
0001b0 17 cb 6d 3f eb 2a fd bd e2 0b e5 3d a3 5f e4 3d
       0.92888016 -0.123617016 0.11183907 0.11151054
0001c0 11 5f 2b bf 1b 9a 5c 3f 44 18 90 be fb d4 e6 bb
       -0.66941935 0.86172646 -0.28143513 -0.007044432
0001d0 3e 78 b0 3d 53 82 fe be 30 f5 dc 3e 98 42 29 bc
       0.086166844 -0.49708804 0.43155813 -0.010330819
0001e0 b7 9a 85 3c 59 26 26 be 60 97 a3 be 4e 48 37 3e
       0.016309125 -0.16225566 -0.31951427 0.17898676
0001f0 b1 0e 71 bc 19 49 8b be 18 40 cb 3e 41 99 ed be
       -0.014712975 -0.27204207 0.39697337 -0.46405986
000200 a5 13 26 3f 1b 7d 7d be f2 46 26 bd 40 25 da 3e
       0.64873725 -0.24754755 -0.040595002 0.42606544
000210 b7 16 29 bf 5d b8 30 3f 81 4c 94 be 9d 80 a7 3c
       -0.66050285 0.69031316 -0.28964618 0.02044707
000220 c2 0f 78 3e 75 47 19 bf 5a f0 12 3f 5c 65 a6 be
       0.24224761 -0.5987466 0.57398 -0.32499206
000230 09 8c be 3d 6b 38 3e bd 01 5a 96 be fd ae 93 3e
       0.09304053 -0.046440523 -0.29365543 0.28844443
000240 b3 8b d2 bd 8d cc 2a 3e 62 30 77 3d 58 d9 57 be
       -0.10280552 0.16679592 0.060348876 -0.21079004
000250 61 2b 56 3e 59 de 4e bd 8d ac 0d be 73 04 b5 be
       0.20914985 -0.050505016 -0.13835354 -0.35354957
000260 38 96 bc be ee 40 22 3e 80 0b bf 3e bc 80 76 3b
       -0.36833358 0.15845081 0.3731346 0.0037613353
000270 69 2a 8d be 82 0d b8 be 4a d3 29 be dc ae 59 bd
       -0.2757142 -0.35947806 -0.16584507 -0.053145275
000280 ee f6 6d 3e 8f 68 47 be 57 c0 af be 8f f0 9f be
       0.23238727 -0.1947348 -0.3432643 -0.3123822
000290 4a 0b 5c be 8d 55 49 3e 16 01 db 3e 1f 09 aa be
       -0.21488681 0.19661541 0.42774266 -0.33210084
0002a0 3d 85 0f bf ea 67 ce be af 0a be 3e b7 4a 38 3f
       -0.5606268 -0.40313655 0.37117526 0.71989006
0002b0 7c 39 88 3e 1d 77 31 bb 63 94 73 be 20 73 9e bd
       0.26606357 -0.0027079054 -0.23787074 -0.07736802
0002c0 80 ae 71 bd 3c ea 71 be 42 91 53 3d a9 c1 02 bb
       -0.059004307 -0.2362451 0.0516522 -0.0019951856
0002d0 07 b3 82 bd 9f e8 6b bd aa 05 1e bd e4 e2 8b 3d
       -0.06381803 -0.05759489 -0.03857962 0.06830385
0002e0 71 44 9f bd ee 0c 9e bd 6f 3c 8d 3d e2 b3 f7 bd
       -0.07776726 -0.0771731 0.068962924 -0.12094857
0002f0 26 19 b8 bd 9a 3e cd bc bb 61 91 be 48 86 b3 3e
       -0.08989172 -0.025054265 -0.28394875 0.35063386
000300 1b 64 08 be eb 68 8d be 8e 84 b3 3c 5c 2b 73 3c
       -0.13319437 -0.2761911 0.021913793 0.014841881
000310 71 d0 2d 3b cb d3 a0 bd 18 99 ee bd 8e a7 5a 3d
       0.0026521946 -0.07852896 -0.11650294 0.05338245
000320 b4 1c 8a 3e e4 73 f8 3e 9a ba 6e 3e 2f 63 3d 3e
       0.26975024 0.48525918 0.2331337 0.18494867
000330 28 a9 03 bf a5 0b 66 3e 71 ae be 3e b9 f6 0e 3f
       -0.51429987 0.2246538 0.37242463 0.5584522
000340 5b 93 a5 3e 35 e0 af bc 50 4c a5 be 49 31 05 3f
       0.32338986 -0.021469215 -0.32284784 0.5202833
000350 59 3d 09 3f ee d2 ae 3e af 01 d7 3e 3f 99 74 bf
       0.53609234 0.34145302 0.41993472 -0.95546335
000360 b7 62 f0 bd 01 41 bb 3e 3b 86 72 3e 0e d9 0a 3f
       -0.11737578 0.36573032 0.23684017 0.5423745
000370 61 a9 5a bf c3 41 32 bf 77 f1 f2 bd 06 a6 bc 3e
       -0.854147 -0.69631594 -0.11862462 0.36845416
000380 22 47 04 3f e2 0b 9c bd fd 9a 81 3e 22 6c a0 3e
       0.5167104 -0.07619454 0.2531356 0.313325
000390 f9 e2 9c be 33 ef a3 bd e5 21 fc bd 7d 60 c7 be
       -0.30641916 -0.08004608 -0.12311152 -0.38940802
0003a0 2a e2 37 3f 69 98 a4 be 29 4f 78 bc da 39 80 3d
       0.71829474 -0.3214753 -0.015155592 0.06261034
0003b0 be f5 3f bf 95 b9 92 3d 2f 98 64 3f 6f 30 8c be
       -0.7498435 0.07164303 0.89294714 -0.27380702
0003c0 82 1a 14 be ed 8b bb 3e b2 de 59 bf b8 ac 11 3f
       -0.14463237 0.36630192 -0.8510543 0.5690417
0003d0 e8 05 d5 3e 19 39 7c bd 69 87 09 3e d4 ba ca 3b
       0.4160607 -0.06157789 0.13430561 0.0061868224
0003e0 92 5b d9 be 6a f4 50 3e a0 cb ec bd 27 f8 14 bc
       -0.42452675 0.20405737 -0.11562276 -0.009092367
0003f0 d1 79 2d be 47 7b 9f be d2 08 7f 3e 2b 5a 07 3e
       -0.16941 -0.3114874 0.24905708 0.1321799

bias f4 [32]
000000 5c 7f 36 3e 79 b6 18 be bc 75 77 bf 80 3a f1 be
       0.17822021 -0.14913358 -0.96664023 -0.47114944
000010 e3 19 86 bf 7b 92 87 be ed ed 30 be a6 57 29 bf
       -1.047665 -0.26478943 -0.17278261 -0.66149366
000020 6c 68 6f be b1 67 cc be 6d cd 94 be 41 4f 9b be
       -0.23379678 -0.3992286 -0.29062977 -0.30333903
000030 0f 40 38 bf 19 39 a1 be 82 00 97 bf 39 78 8c bf
       -0.71972746 -0.31488875 -1.179703 -1.0974189
000040 ca 8d 94 be 3d 06 38 bf fc 81 c9 bf 4f 94 2d bf
       -0.29014426 -0.7188452 -1.5742793 -0.67804426
000050 56 03 92 bf ed db a1 bf 57 1d 1e bf 79 73 b3 bf
       -1.1407268 -1.2645241 -0.6176352 -1.4019614
000060 02 5d 91 be cf 04 9c be 3b 64 b3 bf 8e e9 b7 bf
       -0.28391272 -0.3047242 -1.4014963 -1.436815
000070 60 4c f3 be 9d df f2 be c7 05 35 bf d6 0a 1c bf
       -0.47519207 -0.47436228 -0.7071194 -0.60954034

weight f4 [16, 32, 5, 5]
000000 de 49 c7 bc 2c 51 28 bd f5 cf 20 bd 35 76 ff bc
       -0.024327215 -0.041093037 -0.039260823 -0.031184295
000010 27 54 ff 3b dd 9f 08 bd 3c fb e8 bc a9 ce 20 bd
       0.007792014 -0.033355583 -0.02844011 -0.039259586
000020 bd 64 85 3c b0 24 99 bc dc 4a 67 bd bb 10 48 bd
       0.016283387 -0.018694252 -0.056467876 -0.04884408
000030 9d 34 3b bb 88 98 d0 bc ed 97 6b 3c 08 ed 34 bc
       -0.0028565296 -0.025463358 0.014379484 -0.011042841
000040 4c fb ec b9 0e 18 13 bd 22 62 62 bc 4e d4 78 bc
       -0.00045200658 -0.035911612 -0.013817342 -0.015187336
000050 86 c7 9a bd 0d f5 af bd 14 9b 9c bd a4 63 9f bd
       -0.07557587 -0.085916616 -0.07646766 -0.07782677
000060 cd e3 b4 bd bf 57 7f 3c 0f c8 ce bc 9b bf d5 3c
       -0.08832512 0.015584885 -0.02524188 0.026092341
000070 0e 8a a7 bc ae 94 bd 3c c9 af d4 bc 20 1b 8d bc
       -0.020451572 0.023142185 -0.025962727 -0.017224848
000080 95 e0 60 3c 32 7c 86 bc 89 0d 57 bc 68 ad 86 bc
       0.0137254195 -0.016416643 -0.013125786 -0.016440108
000090 ae da 71 bc c2 c4 07 bd c8 32 16 bd 54 4c 5d 3c
       -0.01476161 -0.033146627 -0.036669523 0.013506968
0000a0 d6 25 f1 3c a6 91 92 3b 59 64 51 ba e1 03 96 bc
       0.029436987 0.004472929 -0.000798767 -0.018312396
0000b0 e4 d4 27 bd 5d fc 20 bb 72 c6 05 bb 1c 16 4a bc
       -0.040974513 -0.0024564483 -0.0020412472 -0.012334373
0000c0 bd 92 d3 3c 90 ce b7 bb c0 ab 82 bc a0 24 f6 3c
       0.025826806 -0.005609341 -0.015951037 0.030046761
0000d0 a2 5d d3 3c 44 3e 82 bb 45 49 5a bc e9 61 09 bd
       0.025801484 -0.003974708 -0.013323133 -0.03354064
0000e0 cc cc 9c 3c b5 87 23 3d 25 22 ad 3c c9 c1 18 bd
       0.019140624 0.039924342 0.021134445 -0.037294183
0000f0 ae e6 43 3c f6 41 b9 bc df ea c9 3c ba 82 d8 3c
       0.011956854 -0.02261446 0.024648128 0.026429523
000100 6f 41 b3 bb fb d3 18 3d d6 1c b0 bc 79 57 70 bb
       -0.005470447 0.037311535 -0.021498125 -0.0036673232
000110 b6 e0 6c 3c 65 45 0a bd a6 4b a0 3c 65 ff ac 3c
       0.014457872 -0.033757586 0.019567322 0.021117875
000120 89 8f d3 3b ae 45 3e ba 59 56 bc bc ec ee 87 bc
       0.0064563197 -0.0007258308 -0.022990393 -0.016593419
000130 cc 88 44 bd 15 80 9f bc c1 3b 31 bd 00 f6 ea bc
       -0.047982022 -0.019470254 -0.043269876 -0.028681755
000140 87 f6 47 bc e7 44 1f bd 76 63 cb bc 8b c9 ce bc
       -0.012204773 -0.03888407 -0.0248277 -0.025242588
000150 fe 40 cd bb 7b 87 5d bd 17 d0 9e bc f1 b3 f2 bc
       -0.006263851 -0.054084282 -0.019386334 -0.029626818
000160 3a 7f 37 bd 95 78 1c 3c bc 51 71 3c 96 4b bd bc
       -0.044799067 0.009550233 0.01472896 -0.023107331
000170 b6 84 33 3b 02 85 2c bd 6a 8c 83 3b 38 f6 d8 3b
       0.0027392334 -0.042119034 0.0040145414 0.0066211484
000180 04 85 6d 3c c4 e8 19 bd c8 51 37 bc 50 76 ad 3c
       0.014497045 -0.0375755 -0.011188932 0.02117458
000190 cb fc 82 3b e8 74 12 bd 4f 40 f2 bc 2d 37 df 3b
       0.0039974204 -0.03575602 -0.02957168 0.0068119974
0001a0 76 cb ee bb b2 a2 22 bd 85 aa 02 bd 28 61 68 3c
       -0.007287438 -0.03970594 -0.0319009 0.01418332
0001b0 fb 3e 40 3c d9 d1 e3 3c 95 86 0b 3c 9e ef a3 bc
       0.011733766 0.027810024 0.008515974 -0.02001172
0001c0 e6 43 cc 38 14 da 67 3c 0e 66 c5 b9 39 b3 5b ba
       9.740125e-05 0.014151115 -0.00037650805 -0.0008380893
0001d0 13 7f cc 3c 29 e1 b3 bc db 28 f0 bc a1 73 c8 bc
       0.024962937 -0.02195795 -0.029316356 -0.024469199
0001e0 c0 0f 8b 3c 03 1d a2 bc 1f 41 d2 bc 38 c0 22 3b
       0.016975284 -0.019789224 -0.025665818 0.002483381
0001f0 8d 88 0c 3c 3f a3 55 bb d9 ed b5 bc 04 58 a1 bc
       0.008577478 -0.0032598523 -0.022208141 -0.01969529
000200 88 17 32 bc 68 ea ae 3c a3 3e 61 3c 0e 45 f5 bc
       -0.010869868 0.021352008 0.013747844 -0.029940154
000210 5e 2c a2 3c a5 a4 0d bd 70 58 0e bd 29 90 a3 bc
       0.019796547 -0.034580845 -0.03475231 -0.019966202
000220 a5 1a ea bc af 3c cc bc f1 e4 5c bb 11 a8 65 bd
       -0.028577158 -0.02493128 -0.0033705796 -0.056068484
000230 31 5e 3c 3c 58 26 46 3b fd d9 1b bd b0 6e ec bc
       0.011497066 0.0030235257 -0.038049687 -0.028861374
000240 ac 2b 98 3c 16 13 b8 bd 31 0c b5 bd e6 6d 98 bd
       0.018575512 -0.08988015 -0.08840216 -0.074428365
000250 3a 97 a4 bd de 35 af bd d9 55 29 bd 99 e5 e1 3b
       -0.08036657 -0.08555196 -0.041341636 0.0068938253
000260 00 fe ec bc 42 4e 2e bd 4e e4 6a bd 38 90 5d 3c
       -0.02892971 -0.0425551 -0.057346635 0.013523154
000270 9c de 7b bb 6a e6 be bc 68 b1 0a bd d6 a8 66 bb
       -0.0038432246 -0.02330323 -0.033860594 -0.003519585
000280 63 0f d5 3c 4f 68 98 bb e5 1e d0 3b 00 42 91 3b
       0.026008314 -0.0046511064 0.006351339 0.0044329166
000290 04 ea 26 bc fa 03 18 bd d2 89 0b 3c bc 5a ac 3c
       -0.01018763 -0.037113167 0.008516746 0.02103936
0002a0 57 e8 29 bd 12 0a 21 3c 69 e3 ce ba 56 55 2a bd
       -0.041481342 0.009829061 -0.0015784326 -0.04158529
0002b0 f7 3c a4 3a 62 8f 11 bd 3e bd 82 3c 45 ce c7 3a
       0.0012530376 -0.03553713 0.015959378 0.0015243968
0002c0 de 85 d4 bc 30 0d c0 3a 86 6c 16 bd 3c 43 c7 3c
       -0.02594274 0.0014652368 -0.03672459 0.024324052
0002d0 2a 69 a3 3c fb 2f b7 3c 91 89 9e 3b 48 07 06 bd
       0.019947607 0.022361746 0.0048381765 -0.032721788
0002e0 69 ea 0d 3c 85 30 44 3c 73 ee ff bc 84 fe df bc
       0.008661845 0.011974459 -0.031241631 -0.027343042
0002f0 ce ec f9 bb f9 3e 4d 3c 4f 29 44 bd d7 88 dc 3b
       -0.0076271063 0.012527221 -0.047890957 0.00673018
000300 e5 09 4c ba 88 7d 82 bd 79 d7 64 bd a3 23 05 3d
       -0.0007783457 -0.063715994 -0.055869553 0.03250469
000310 08 a0 07 bc 61 52 0c bc fd 75 e7 3c 13 45 11 bd
       -0.0082779005 -0.008564563 0.028254503 -0.035466265
000320 86 3c e4 3b 01 9f e1 3c 05 d4 ff bc b8 77 c3 bc
       0.006965223 0.02754164 -0.031229028 -0.023860797
000330 d7 45 77 bd aa 05 37 bb 7c 77 08 bc 61 dc 80 bc
       -0.06036934 -0.002792696 -0.008329269 -0.015730085
000340 ab c6 50 3c f7 df 96 bc 77 89 57 bc e3 50 29 bc
       0.012742679 -0.018417342 -0.013155333 -0.010334226
000350 c5 3c 9a bc 6b 8e 00 bc d1 95 fe bc 3d fc 78 3c
       -0.018827805 -0.007846455 -0.031077297 0.015196857
000360 dd 9a 98 bc fc 1c a1 bb 85 0b 0a bd b8 ae 13 bd
       -0.018628532 -0.0049167853 -0.033702392 -0.036055297
000370 56 25 e0 bc ee b5 28 bd 7d 2e 64 bb 88 73 00 bd
       -0.027361553 -0.041189127 -0.0034817748 -0.03136018
000380 6c 87 ab 3c ad da 99 bd 16 a6 bb bd 50 fa b6 bc
       0.020938598 -0.07512412 -0.09162538 -0.022336155
000390 1f 8f 81 bb 06 be 29 bd 42 9d f8 bc 91 e7 77 3b
       -0.003953829 -0.041440986 -0.030348424 0.0037827233
0003a0 cf 54 25 bd d3 bb 17 3c 36 ac 0b bd e8 33 db bb
       -0.040364083 0.009261089 -0.03409978 -0.0066895373
0003b0 ab b8 b6 3c 65 1e f5 bc e2 05 3d bc 21 3c 0b bd
       0.022304853 -0.02992172 -0.011537047 -0.03399289
0003c0 c3 5b 07 3c d4 b3 ac 3c c8 8f b7 3c e3 e5 5a bc
       0.008261624 0.021081842 0.022407427 -0.013360473
0003d0 4f 5a 69 3c f2 bf 33 3c 67 cb cd bc d3 f2 28 bc
       0.014242723 0.010971056 -0.025121404 -0.0103118
0003e0 14 9b cf bc 31 21 bf bc 62 d4 cc bd 68 f1 84 bd
       -0.025342502 -0.023331257 -0.10001446 -0.06491357
0003f0 a5 04 98 bc 6f 84 52 bb 05 1c 05 bd 13 61 b9 3b
       -0.018556902 -0.0032122394 -0.032497425 0.005657324

bias f4 [16]
000000 fb c3 1e be cd d0 1e bf c0 7e 4a bd 0b bc 9b 3e
       -0.15504448 -0.62037355 -0.049437284 0.30416903
000010 7d 4f fc be 93 4c a6 3e 0c 9d 1b be bb 53 82 bc
       -0.49279395 0.32480296 -0.15196627 -0.015909066
000020 c2 dc 33 bd ff 31 db bf 4c ed 90 bd 4b 96 77 3f
       -0.043911703 -1.7124633 -0.07076511 0.96713704
000030 63 8c 45 3e 18 a4 08 3f 92 98 55 3e 83 7c a8 be
       0.19291835 0.5337539 0.20858982 -0.32907495

weight f4 [32, 16, 5, 5]
000000 ea 40 21 bd df 86 d7 bc 71 09 c2 3c e3 6b 82 3c
       -0.039368547 -0.026309429 0.023686143 0.015920585
000010 3d 1e 44 3c e8 ef 02 bd dd 14 a2 bc 44 58 10 3d
       0.0119701 -0.031967074 -0.019785339 0.035240427
000020 50 a3 94 3c 1d f3 97 bc 87 99 6a 3d 37 c8 39 3d
       0.01814428 -0.018548543 0.05727532 0.045356955
000030 4a a8 43 3d 43 09 dc 3c 9e d3 57 bc 1e da c6 3a
       0.047767915 0.026859885 -0.013173012 0.0015171205
000040 1c b3 69 3c e8 83 14 bc 6e 7f 67 3a 18 20 a6 3c
       0.014263894 -0.009064652 0.0008830939 0.020278975
000050 92 f1 07 3d 3a 30 5c bd fa 29 e2 bc 8d 0a 59 bd
       0.033189364 -0.05375693 -0.027607907 -0.052988578
000060 f0 67 32 bd e5 05 a6 3d 66 9d ab be 48 52 b9 3e
       -0.043556154 0.08106593 -0.33518523 0.36195588
000070 3f 52 c9 be 22 0d 3b bd ea 1a a7 3e dd 0f 92 bd
       -0.3932056 -0.04566682 0.3263772 -0.07131932
000080 a5 be 84 3e 53 a7 2e be 57 45 e3 bc b4 38 80 3d
       0.259267 -0.17056017 -0.027743025 0.06260815
000090 c8 26 e0 bd 21 cd c7 bd cc 3e 73 3e 9f 18 9c be
       -0.10944897 -0.09755922 0.23754424 -0.30487534
0000a0 9b 79 47 bd 92 93 7a 3e 40 2b 88 3e 39 a5 0a bb
       -0.048699956 0.24470356 0.26595497 -0.002115561
0000b0 3f 2a a6 be 4f d0 35 3e e2 f6 0c 3e 87 7c 88 be
       -0.32454106 0.17755245 0.13766053 -0.26657507
0000c0 b5 88 64 bd 94 c1 2c 3c 31 57 6a bd de 7d 0b 3d
       -0.055794436 0.0105441995 -0.05721206 0.034055583
0000d0 7a a1 ba 3c 15 f0 06 bd f3 b0 6a 3d 95 47 93 bd
       0.022782076 -0.032943804 0.05729766 -0.071913876
0000e0 ba f2 69 bd 09 4e 96 bd a4 a5 d7 3b e3 4b 0e 3b
       -0.057116248 -0.07339103 0.006581025 0.0021712712
0000f0 50 d9 11 bd 16 a7 43 bd 4b 7e 67 bd ac 46 4d bd
       -0.035607636 -0.047766767 -0.056516927 -0.050116226
000100 c4 ec b0 3c 6c 03 4d bd f6 f8 50 bd e7 83 8d bb
       0.021597274 -0.05005209 -0.051018678 -0.0043187025
000110 4e 78 41 bd e7 12 f8 bb fd f7 c1 bb 45 0b 33 bd
       -0.047233872 -0.0075706127 -0.005919455 -0.04371192
000120 93 ea 03 bd 77 26 4c bd 22 de 84 3c 75 ce c1 be
       -0.03220613 -0.04984137 0.016219202 -0.37852827
000130 b2 a8 36 3d 4d c0 fb 3c 49 53 78 be 33 07 48 3d
       0.044594474 0.030731345 -0.24250521 0.04883499
000140 79 9b 1f 3f 1a d1 27 3e f8 dd bd be 42 1a 91 be
       0.6234661 0.1638836 -0.3708341 -0.28340346
000150 8c 8a 71 be a1 09 4e bb 4f c1 2f bf b1 6a 33 bf
       -0.23588008 -0.0031438845 -0.6865434 -0.70084673
000160 6f 6b ac bf 39 82 41 be cb d4 13 be 71 ef a9 be
       -1.3470286 -0.18897332 -0.14436643 -0.33190492
000170 4a db 19 3d c9 f5 cf 3d 7d 21 1a 3f 4a fa eb be
       0.037562646 0.10154302 0.6020735 -0.46089393
000180 6d 7f f6 be 73 df b6 3e 2b cd 01 3f c2 c9 7b be
       -0.48144093 0.35717353 0.50703686 -0.24588683
000190 33 75 66 be a8 28 08 3f a2 23 b8 3d 45 aa 56 3c
       -0.22505645 0.53187037 0.089911714 0.013102119
0001a0 8b 6a 01 3f 6f ee 91 bd 52 7c a0 3e 94 ed e1 3e
       0.50553197 -0.07125556 0.3134485 0.4412657
0001b0 c4 04 f8 bd db ec 47 3e ac cd 38 3e df 0a 48 3b
       -0.12110284 0.19523947 0.18047208 0.0030524058
0001c0 4a 6b 1d be 5d ce 8c be f2 78 ee bc 33 96 5b be
       -0.15372959 -0.27501193 -0.029110406 -0.21444015
0001d0 db 8f 6f be 46 c2 37 bf 99 6a 7b be 49 d4 db 3d
       -0.2339472 -0.7178081 -0.24552383 0.107338496
0001e0 77 38 b9 3e cf eb 33 bf 42 8a 51 be 2e a3 ea be
       0.36175892 -0.7028169 -0.20462897 -0.4582762
0001f0 2f 9c a5 3c ad 3b d6 b5 07 54 6b 3e 96 9f 68 3e
       0.020216076 -1.596161e-06 0.22981273 0.22717127
000200 cf 7d 6e 3e ed b9 ee bd 4a d9 5e 3e ab fb d6 3e
       0.2329018 -0.11656556 0.21762577 0.41988882
000210 04 1c ab bc 96 3f 2e 3e 1a 76 34 bf 61 e0 02 be
       -0.020887382 0.17016444 -0.7049271 -0.12780906
000220 e9 6f a4 3e 7f 38 23 3e 4b f0 e4 3e 78 2f 45 3e
       0.3211663 0.1593952 0.4471458 0.19256389
000230 a6 d4 ca 3e fc 1a af be a3 eb 45 bf 99 97 2d be
       0.39615363 -0.34200275 -0.7731268 -0.16952361
000240 8c 8f f1 bd 9c 38 11 3e b9 cd b8 3e 5a 6a 19 3f
       -0.117949575 0.14181751 0.36094454 0.59927905
000250 c0 2d f5 bd 02 e8 aa be e7 23 42 bf 5a d7 d6 bd
       -0.11971617 -0.33380133 -0.7583603 -0.10490294
000260 2a d3 05 3f e2 9f f0 bd 8d 31 b6 be e4 bf 8c 3e
       0.52275336 -0.11749245 -0.3558468 0.2749015
000270 60 80 43 be 28 5e f5 3d f4 45 94 be 72 57 9a be
       -0.1909194 0.119808495 -0.2895962 -0.3014484
000280 7c ec 14 3e 7e 15 a3 bd 51 e0 cf 3e 60 0e 61 3e
       0.14543337 -0.07963084 0.40600827 0.2197814
000290 bd e5 f6 3c 66 d5 02 be 45 ef 69 be f9 10 44 3e
       0.030138845 -0.12776718 -0.2284518 0.191471
0002a0 47 57 b8 3d 14 27 1a bd 35 1e 5d 3e 59 5e c8 3e
       0.09001022 -0.037634924 0.21593554 0.39134482
0002b0 9c 15 81 3d 3c 83 08 bd 96 c0 f6 3c 41 fc a7 3c
       0.0630295 -0.03332828 0.030121129 0.020506026
0002c0 59 af 63 3d bb 6c 41 bc db c0 19 bc 38 4e d2 3d
       0.055587146 -0.0118057085 -0.009384359 0.10268825
0002d0 b3 f3 43 bc 3a 50 d9 3c 73 5b a1 3d a9 5e b0 3d
       -0.011959958 0.026527513 0.07878771 0.08611805
0002e0 18 0e fe 38 ab b3 a6 3c 23 ea 36 3d 43 8b 61 3d
       0.00012114289 0.020349344 0.044656884 0.05506445
0002f0 37 66 1e 3d d0 50 86 3d d7 14 67 bc 17 2c 1b 3d
       0.0386717 0.065583825 -0.01410409 0.037883844
000300 71 a4 a5 3c 8b c0 6a 3b 01 18 34 3d 56 d7 9d bc
       0.020220013 0.003582033 0.043968204 -0.01926772
000310 c6 4a f8 bb 9a f5 4e 3d 89 96 d3 bc 96 2d 76 3d
       -0.007577273 0.050527193 -0.025828617 0.060102068
000320 d5 fc ac 3c 81 ac 02 3f 25 d0 b0 be 4e 35 c4 3d
       0.021116653 0.5104447 -0.34533802 0.095804796
000330 c7 3d da 3e 67 4f c5 be b5 a1 4a 3e 0d 19 1a 3e
       0.42625257 -0.38537142 0.19788249 0.15048619
000340 43 77 c9 3d 8b c8 8a 3e 10 36 14 be dd f9 11 3f
       0.098372005 0.27106127 -0.14473748 0.57021886
000350 77 1e 0f bd dd f1 2f bf 94 72 ad 3b 9f 7d 8d bd
       -0.034941163 -0.6872843 0.0052932 -0.06908726
000360 04 66 5d bf 25 6a 69 bf e6 f9 bb be 21 65 97 bd
       -0.8648379 -0.9117759 -0.36714095 -0.07392336
000370 3a 73 c6 3e f2 ce 8c bf 2f 27 b6 be 2d 4d be bc
       0.38759786 -1.1000655 -0.3557677 -0.02323016
000380 92 3f c7 3e 4a f6 84 be e0 31 aa 3d e1 e8 18 bf
       0.38915688 -0.25969154 0.08310294 -0.59730345
000390 0f 4e 0f be d7 20 19 3f 38 ef b1 be 48 19 11 3e
       -0.1399462 0.59815735 -0.34752822 0.141698
0003a0 e7 7e ab 3d bc 3f fe be 4f 0d 38 3e 44 e9 16 bf
       0.08373814 -0.49658 0.17973827 -0.58949685
0003b0 94 a8 27 be 10 ed e1 be ea a7 ab bf cf c2 71 bf
       -0.16372901 -0.44126177 -1.3410618 -0.9443788
0003c0 f3 08 ba 3e 31 e6 0a bf 47 e2 b5 be d1 f0 ba be
       0.36334953 -0.54257494 -0.35524198 -0.36511853
0003d0 48 c3 0c 3f 58 15 28 3e 15 2c 0e bf d4 56 14 be
       0.54985476 0.16414392 -0.55536014 -0.14486247
0003e0 ae 58 2f bd 2d 7f 0b 3f 16 d4 21 bc 33 61 63 3d
       -0.04280918 0.5449093 -0.009877225 0.05551262
0003f0 ec 8d 02 bd e2 93 a6 3c 95 d2 ec bb 7c 49 40 bc
       -0.03187363 0.020334188 -0.007227252 -0.01173627

bias f4 [32]
000000 85 7b b8 3f 29 87 d1 3e 36 98 14 3f db 96 50 3f
       1.4412695 0.40923432 0.58044755 0.8148019
000010 50 c2 2d 3f 10 73 1d 3f 3a 0e 35 bf 49 a0 11 bf
       0.6787462 0.61503696 -0.70724833 -0.568852
000020 d3 16 b2 3f ee 73 0f 40 b3 d3 2b 3e d1 ff 56 bc
       1.3913215 2.2414508 0.16779976 -0.013122515
000030 d1 02 bb be 2d 6e c1 3f cf 8d 27 3f d8 29 d0 3e
       -0.36525586 1.5111748 0.6545076 0.40656924
000040 e2 f2 5d 3d f8 f7 1c 3e 17 01 a6 3f 3e 94 2c bf
       0.05418671 0.15328968 1.2969083 -0.674137
000050 b0 84 df 3c a4 32 52 3f c4 42 85 bf 39 28 1a 40
       0.02728495 0.8210852 -1.0411 2.408705
000060 d2 a2 87 3f 63 bc 2b bf dc 5a 89 be fa 06 4f 3f
       1.0596564 -0.6708433 -0.26827133 0.8087002
000070 f9 77 be 3d eb 5c 3c be 2e 28 67 3f 80 9b da 3e
       0.09300227 -0.1839482 0.90295684 0.42696762

weight f4 [10, 512]
000000 bd 3a 1d 3f 35 4e 40 3e 23 68 bb 3e a6 a4 be be
       0.6141775 0.18779834 0.36602888 -0.37234992
000010 c7 25 8b be 38 fb 97 3e dc 45 a4 be 5f 01 4e be
       -0.2717726 0.29683852 -0.32084548 -0.2011771
000020 a3 41 a2 be 2c af 15 bf fe cd f2 bd 82 24 30 3e
       -0.31690702 -0.58470416 -0.11855696 0.17201427
000030 fb 11 74 be e4 56 c7 3c 32 da cb be 0b cc 96 3d
       -0.23834984 0.024333425 -0.39814907 0.07363137
000040 67 c9 98 be df 02 4a 3e 27 f7 ef 3d ac 53 f0 3c
       -0.29841158 0.19727658 0.117170624 0.029336773
000050 bb c1 81 be 2b e5 79 3e b3 9d f5 be 74 46 83 3e
       -0.25343117 0.24403827 -0.47971877 0.2563969
000060 06 98 eb bd 61 a6 fa 3e 4a b2 14 3e 36 fc e6 be
       -0.115036055 0.48955062 0.14521137 -0.45114297
000070 7c 17 19 be 13 f5 76 bd ed 46 b7 be 30 10 99 3e
       -0.14950365 -0.060292315 -0.357963 0.29895163
000080 d7 c9 a2 be 69 25 3e be 1d 64 c4 bd ec 08 cc be
       -0.31794617 -0.18568958 -0.095894076 -0.39850557
000090 1e 04 fb 3d 4a 4c 94 3d bb 5b 46 3d 6e d3 c4 be
       0.12256645 0.072411135 0.048427325 -0.38442558
0000a0 98 79 a7 3e b8 fd 1b 3d a9 b2 74 3d 89 6c 3a be
       0.32709956 0.038083762 0.059740696 -0.18205465
0000b0 c8 97 2d 3d a4 eb a8 bc ff 36 80 be 79 c3 b3 be
       0.042381078 -0.020620175 -0.2504196 -0.3511007
0000c0 9a 64 c8 3e c0 74 27 bd 5f 61 78 be 51 aa 20 bf
       0.39139253 -0.040882826 -0.24255894 -0.6275988
0000d0 4e ce f0 be 21 a7 39 be 2b a0 ac be 20 5a a6 3e
       -0.47032398 -0.18130161 -0.33715948 0.32490635
0000e0 44 09 c4 be 27 82 a7 3c 78 57 05 3f 7b 86 e5 3c
       -0.3828832 0.020447804 0.5208659 0.028018227
0000f0 43 d7 b0 be 6a 20 e3 3e 65 03 c8 3e 0f fb 96 3d
       -0.34539232 0.44360667 0.3906509 0.073721044
000100 f4 3a 53 3e a1 8b 47 3e 19 f6 0d 3e 7f 5a c6 be
       0.20627958 0.19486858 0.1386341 -0.38740918
000110 3e 17 be be b5 6c c0 bd 2c 96 2c be c5 36 68 be
       -0.37127107 -0.09395734 -0.16854161 -0.22677143
000120 c1 84 ee 3d d7 44 f8 3d 6b 28 02 bf b5 d1 ca be
       0.116464145 0.12122505 -0.5084292 -0.3961312
000130 d3 c4 0d be 32 cb f0 bd d6 8e 07 3e 95 49 6d 3e
       -0.13844614 -0.117575064 0.13238081 0.231726
000140 d4 11 dd be 2a e8 17 3e cd 76 db 3e 91 a5 99 3c
       -0.43177664 0.14834657 0.42864075 0.018755706
000150 0e 91 ab be aa 0c 19 be 2a bb 88 be c0 e1 61 3e
       -0.33509105 -0.14946237 -0.26705295 0.22058773
000160 3b 94 63 3e 2e 0c 90 3e 83 81 ce 3e 4c a2 49 bf
       0.22224514 0.28134292 0.40333185 -0.7876327
000170 01 6d 10 3e 40 c8 ad be d5 24 9d be b9 bc 2f 3e
       0.14104082 -0.3394184 -0.30692163 0.17161836
000180 e6 f4 75 3e 06 fb 69 3e 3a 8b 6d bc 5f e8 9e 3c
       0.24019203 0.22849664 -0.014498526 0.019397913
000190 96 15 8f 3d 06 05 b8 be 49 a7 d6 be 7f cd 82 3c
       0.06986539 -0.35941333 -0.41924503 0.015967129
0001a0 dc 46 85 3d d5 23 8a 3c 6b 9c 3d be b9 a5 a0 3e
       0.06507656 0.01686279 -0.185167 0.31376436
0001b0 d4 0b d0 bd f9 91 98 be 81 4a 11 be f6 87 1b 3e
       -0.10158506 -0.29798868 -0.14188577 0.15188584
0001c0 77 8f b6 be e3 38 a6 be 7f 35 68 be 3e 4e 0b be
       -0.3565633 -0.32465276 -0.22676657 -0.13604066
0001d0 b4 a9 2d 3e dc 5a 40 bd cd c0 2a bd 35 28 bb 3d
       0.16959268 -0.04696165 -0.041687775 0.09138528
0001e0 0e c9 a2 3e d6 07 a1 3d f7 c4 a8 be 5e 72 cd be
       0.31794018 0.07862823 -0.32962772 -0.40126318
0001f0 8b ad 83 3d 2d 65 4d 3e 52 c8 1e bf c6 ed 90 be
       0.06429585 0.20058127 -0.62024415 -0.28306407
000200 de 29 dc 3e 2a 6a be be 76 e9 c2 3e 54 5f b9 3d
       0.43000692 -0.37190372 0.38068742 0.090513855
000210 99 e5 d4 be 6f 76 0b bf 7c 83 8a be 59 12 36 bf
       -0.4158142 -0.5447759 -0.2705344 -0.71121746
000220 7a 2c 2b 39 46 14 82 be 2f 98 26 be c8 9e 04 bf
       0.000163244 -0.25406092 -0.16268991 -0.5180478
000230 4c 1a 8d 3d cd b3 43 3d 8c 6a 62 be 0a 00 c9 be
       0.06889781 0.047778893 -0.22110957 -0.39257842
000240 7e b9 82 bd 59 c4 84 3c 9c 1a a1 3e d0 6c cd 3b
       -0.06383036 0.016206907 0.31465614 0.006269075
000250 75 97 35 bd 83 61 3f 3e ea 24 2f 3d 04 a8 76 3e
       -0.044333894 0.18689542 0.042759813 0.2408753
000260 7f 56 6d bd b5 16 33 bf d2 dc be be 28 18 fd 3d
       -0.057943817 -0.69956523 -0.37277848 0.12358123
000270 66 35 f4 be e8 10 de ba f8 e4 16 bf 21 62 08 3e
       -0.4769699 -0.0016942294 -0.5894313 0.13318683
000280 cf 1e fe 3d 8c 12 17 3e f5 aa 6b be 34 ad 9b 3e
       0.1240822 0.14753169 -0.23014434 0.3040558
000290 17 83 64 3e 6f c8 0f 3e 28 15 79 3d 54 1c 0d be
       0.22315632 0.14041303 0.06081119 -0.13780338
0002a0 25 73 d2 bc 33 89 1b bf 70 20 62 be 3b 08 38 3e
       -0.02568967 -0.60756224 -0.22082686 0.1797189
0002b0 e3 d7 43 3e 24 44 89 3e 40 e2 4c be 65 25 7b be
       0.19125323 0.268098 -0.20008183 -0.24525984
0002c0 14 82 1d be 8a bd 2f bf 13 f5 4e 3e 45 1f c2 be
       -0.15381652 -0.6864859 0.20210676 -0.37914482
0002d0 bf 22 f8 3b cf 7e 45 3e c9 27 02 3e 24 18 2d be
       0.0075725014 0.19286655 0.1271049 -0.1690374
0002e0 c3 4b 71 be 16 f4 e3 3d 22 d2 22 3e 56 67 12 bf
       -0.23564057 0.1113054 0.15900472 -0.5718893
0002f0 bf c0 c1 bc a2 06 ed 3d 1c 43 e6 3e 6d ac 54 3e
       -0.023651479 0.11573531 0.44973075 0.207689
000300 ae 0d 81 be cd 26 34 3e eb 15 96 bc 2e a5 2f 3e
       -0.2520575 0.17592926 -0.018320998 0.17152855
000310 74 c9 19 be 23 79 97 3e 13 43 58 be 7c ad ad bc
       -0.15018255 0.29584607 -0.21119337 -0.021200888
000320 1c ce 89 bc a8 e3 a7 bd ca d5 b8 3e f6 75 48 be
       -0.016821913 -0.08197719 0.36100608 -0.19576249
000330 f0 21 94 bc b2 fb 7a be 93 35 c5 bd 52 80 03 bf
       -0.018082589 -0.24510077 -0.09629359 -0.51367676
000340 81 c3 de be f6 a8 30 bf a9 e5 42 be 9e ad 2c be
       -0.43508533 -0.69007814 -0.19032921 -0.16863105
000350 2c b1 8c 3d 1a 08 48 be c7 26 19 3d 61 b6 d5 3c
       0.0686973 -0.1953434 0.037390497 0.026087942
000360 66 17 1a be 05 42 8c 3e fc 8a 1d bf 28 cc aa be
       -0.15047988 0.2739412 -0.615402 -0.33358884
000370 ea 03 d8 be 46 cf e4 be d9 5f 99 be e0 50 96 be
       -0.42190486 -0.44689387 -0.29955938 -0.29358578
000380 63 4e c0 3e 44 c5 92 bd 86 62 3a be f4 a8 57 bd
       0.37559804 -0.07166532 -0.18201646 -0.05265136
000390 01 5b 87 3e fe 43 b0 3e 85 de 33 3e c4 6e 81 3d
       0.26436618 0.34426874 0.17565353 0.06319955
0003a0 c7 ea 61 bf 1d a3 c9 3d 34 c8 96 be 85 92 98 3e
       -0.88248867 0.098455645 -0.29449618 0.29799286
0003b0 63 3e 3a 3e 03 5e 28 3e 57 97 8a be 59 35 a5 ba
       0.18187861 0.16442113 -0.27068588 -0.00126044
0003c0 8f 48 d8 be 70 52 21 3d 50 45 16 bf d2 78 24 be
       -0.42242858 0.03938526 -0.5869951 -0.16061714
0003d0 9d 4a 86 bc e9 41 8f be d2 a5 18 bf 5e 03 96 3d
       -0.016393 -0.27979973 -0.5962802 0.07324861
0003e0 69 88 47 3b 13 73 c5 bd 22 da e4 bc ce 1a cb bc
       0.0030446297 -0.09641089 -0.027936045 -0.024793055
0003f0 17 c0 55 be 09 98 2b be 7d 03 c9 3d e6 60 fc bd
       -0.20874058 -0.16757216 0.098151185 -0.123231694

bias f4 [10]
000000 d3 93 1a 3e 52 b9 93 bf ac 13 25 bf c2 c0 02 3f
       0.15095453 -1.154093 -0.6448314 0.51075375
000010 58 85 21 3f b0 f6 d9 3d d2 b9 b1 3e 3d 62 97 be
       0.6309409 0.10642755 0.34712082 -0.29567137
000020 d0 cd e7 3d b5 1b 34 be
       0.113185525 -0.17588694
