test.pt (torch_old, 249602 bytes, 10 tensors)

conv1.weight f4 [6, 3, 5, 5]
000000 7e 80 d0 3d c1 ce 9c 3d 91 15 16 bc 2a 12 24 be
       0.10180758 0.07656623 -0.009160415 -0.16022554
000010 08 3b 96 bd 59 66 06 3c 2d c9 7b 3c 82 ae 65 be
       -0.07335478 0.0082031125 0.015367788 -0.2242985
000020 d9 8a a2 bd 08 b7 28 bd 77 51 5f 3b 72 b7 7c 3b
       -0.07936639 -0.041190177 0.0034075656 0.003856149
000030 43 9f 63 be 19 01 00 be 99 9f 6a bd 07 dd 9e bd
       -0.22228722 -0.12500419 -0.05728111 -0.07757001
000040 fd 7d a4 bd 80 d7 c8 bd f0 b4 4c be 1c 3f 29 be
       -0.08031843 -0.09806728 -0.19990897 -0.1652798
000050 15 a6 14 bd f9 27 33 3d a5 e7 ee bd bd d4 ea bd
       -0.0362912 0.043739293 -0.116652764 -0.11466358
000060 b7 a5 4b bd 8f e7 94 bd c2 1f 0c 3c 81 71 0c be
       -0.049718585 -0.07270729 0.0085524935 -0.13715173
000070 1a 77 ab bd 6c 14 33 be 8e ea 1c bd 61 cf 6b bd
       -0.08372326 -0.17488259 -0.038309626 -0.05757082
000080 0a ec cb bb 46 70 e6 bc 64 9b d6 bd 4f f4 e0 bd
       -0.0062232064 -0.028129708 -0.10478857 -0.10984098
000090 6d 13 43 3b f7 91 bd 3d 35 7a 24 bd 96 85 06 be
       0.0029766217 0.09256356 -0.04015561 -0.13136896
0000a0 b5 33 41 bc 4d cb a1 3d 2e 7f f9 bb 14 e9 0c 3d
       -0.011792113 0.07900105 -0.007614038 0.034401968
0000b0 4c 3c b2 bd c4 30 3f be 0e ca 26 bd 38 75 a1 3c
       -0.08702907 -0.18670946 -0.040720038 0.019709215
0000c0 45 50 c0 3c 95 dc 23 be 19 4f a9 3e 82 00 2c 3e
       0.023475775 -0.16002114 0.3306816 0.16797069
0000d0 a2 c0 e1 3d 67 7f cb 3d 05 ec c4 bc 0c a1 9c 3e
       0.1102307 0.099364094 -0.024038324 0.3059162
0000e0 a3 4f 73 3e 13 ab 81 3e 5c a0 90 3d 4f d6 2c bd
       0.23760848 0.25325832 0.07061836 -0.042196568
0000f0 14 2d 9c 3e 08 71 98 3e 7e b5 79 3e b4 c0 b3 3d
       0.30503142 0.29773736 0.2438564 0.087769896
000100 ed 18 a4 bd a0 6d 33 3e c9 4d 82 3e 9a ea 88 3e
       -0.08012567 0.17522287 0.2544997 0.26741487
000110 c8 f7 0c 3e 73 f3 16 3e 47 f6 8b 3d 3c 40 3f 3e
       0.13766396 0.14741306 0.06834083 0.18676847
000120 66 cb 6f 3e 40 e5 8d 3d b4 32 9b 3d cb 05 09 be
       0.23417434 0.069284916 0.0757803 -0.13381116
000130 33 9e a2 bd 2b c6 d5 bb 5d 37 53 bd b3 9f ff bd
       -0.0794033 -0.0065238676 -0.05156647 -0.12481632
000140 45 9c 48 3e a0 4b 11 3e 34 2d 39 3e 4a b5 1c 3c
       0.19590862 0.14189005 0.1808365 0.009564707
000150 b3 3b 73 bd 7e 90 6d 3e c6 e7 8d 3e 29 b6 54 3e
       -0.059383105 0.2319965 0.27715892 0.20772614
000160 c9 1e 69 3d 13 ed bf 3c e0 00 9f 3d 3f cc 56 3e
       0.056914125 0.023428475 0.07763839 0.20976351
000170 7e 11 91 3e c1 ea e6 3d 02 3b 57 3e 57 ab 05 bb
       0.28333658 0.112752445 0.21018603 -0.0020396316
000180 ff 56 dd 3b 4a 13 e7 3d 46 ff 05 3e 78 60 fa 3d
       0.0067547555 0.11282976 0.1308566 0.12225431
000190 b7 86 8b 3d 1f 06 e9 3d 19 4c 3f 3c d8 e3 17 3c
       0.06812804 0.11378121 0.011675858 0.009270631
0001a0 41 a6 e0 3d c3 36 57 bd e1 3c bf 3d 3a 54 f3 3a
       0.109692104 -0.05254246 0.093377836 0.001856453
0001b0 10 f3 c1 3d 0a 70 8e 3b df ad c2 3a b4 1b 9d bd
       0.094701886 0.004346852 0.0014852843 -0.076712996
0001c0 83 de e5 3d 0f f4 fd 3a 0b 25 c7 3d 1a c9 c0 bd
       0.11224081 0.0019375103 0.09723862 -0.09413357
0001d0 0b 97 8c 3d 34 f5 ba 3d 3a ba b9 3d e8 6d a3 bc
       0.06864747 0.091288 0.09068723 -0.019949868
0001e0 f3 69 f4 bd 78 32 ef 3c 87 67 dd bd 7a ba 56 bc
       -0.11934271 0.02919887 -0.10810762 -0.013105983
0001f0 6f 76 c8 bd b1 42 5b 3e aa cd a2 3d 0e ea c5 bc
       -0.097882144 0.2141216 0.079493836 -0.024159458
000200 c9 e6 ac bc c6 f0 07 3d 08 97 1b bc ea 61 e6 3d
       -0.02110614 0.033188604 -0.009496458 0.112491444
000210 00 a2 7d bd 2b 9e 89 bc 26 25 e0 3b cd 98 73 3c
       -0.061922073 -0.016799053 0.006840366 0.0148679735
000220 8f b7 50 bd a5 0a 72 be d5 2c 22 be c4 87 97 bd
       -0.050956305 -0.23636873 -0.15837415 -0.07398942
000230 a1 be 08 3d 8d ad 46 bd b1 62 fa bd 4b 53 4e be
       0.033384923 -0.048505355 -0.12225855 -0.20148961
000240 86 44 8f be a6 85 46 be 44 60 53 be 0e 7e 65 be
       -0.27981967 -0.1938692 -0.20642191 -0.22411367
000250 b5 61 55 be 09 fe 1c be 3b d8 f6 bc d3 98 85 3d
       -0.20838054 -0.15331282 -0.030132404 0.065232895
000260 ba f8 25 be ee 0f 0b bd f2 f6 56 3e ac 71 85 bd
       -0.16208163 -0.03395074 0.2099264 -0.06515822
000270 5a 22 0f 3e 5e 01 cd 3e f1 51 74 be b7 cc 7a be
       0.13977948 0.40040106 -0.23859383 -0.24492155
000280 b0 46 6d be 67 fd 16 3e 3e 93 2e 3f 35 95 26 be
       -0.23171496 0.14745103 0.68193424 -0.16267855
000290 47 c5 11 bf ca 46 04 be ff ea 5c 3e 0e 7b d9 3e
       -0.56941646 -0.12917629 0.21574019 0.42476696
0002a0 f9 2d ab ba 76 f4 b8 be 83 72 69 3e 56 37 da 3d
       -0.0013059966 -0.3612401 0.22797589 0.10655086
0002b0 e1 8f 3f 3d f2 10 01 bd 0a fc 2f 3e e0 c5 2e 3e
       0.046768073 -0.0315103 0.17185989 0.17067671
0002c0 80 15 a4 3c 98 9c 04 bd 35 87 c3 bd 0c c9 28 3d
       0.020029783 -0.032375902 -0.09547273 0.04120736
0002d0 87 ed 70 3c ea 57 21 3e 9f 50 c3 3e a4 bf a4 be
       0.014705068 0.15756193 0.38147447 -0.3217746
0002e0 84 f7 da be 16 75 0b be 91 39 a2 3e a0 a0 36 3f
       -0.42766964 -0.13618883 0.31684545 0.71338844
0002f0 45 21 59 be b9 73 16 bf 84 b8 da bd d9 c7 39 3e
       -0.21204098 -0.5877033 -0.10679725 0.18142642
000300 6e 43 82 3e 7e e5 c6 bc fe dd b6 be f5 66 d5 3d
       0.2544207 -0.024279352 -0.35716242 0.10420028
000310 ed 94 f8 3c 3e 73 b2 3d 7a 65 28 bd 18 b8 9d ba
       0.03034445 0.08713387 -0.0411124 -0.0012033014
000320 8e 3c 91 3d 62 cc f0 bd fa a1 a5 3c 85 55 52 be
       0.07091628 -0.11757733 0.020218838 -0.20540436
000330 fc 78 a7 bc c8 1b 2d bd be 64 35 3d 76 c2 8e 3e
       -0.020443432 -0.042262822 0.04428553 0.27882737
000340 a3 66 de bd fd c4 96 be 53 67 1d be 2e 99 74 3d
       -0.1085942 -0.29447165 -0.15371446 0.059716396
000350 d8 a7 33 3f 50 32 49 be 7a f8 0d bf ff e9 57 be
       0.70177984 -0.19648099 -0.5545727 -0.21085356
000360 e2 fb e1 3d ae 51 ed 3e c7 fc cb bc 4c 7f cd be
       0.11034371 0.4635138 -0.024900807 -0.40136182
000370 08 d1 1f bd e7 b2 6a 3a 14 03 13 3d b4 35 f9 bd
       -0.039017707 0.000895305 0.035891607 -0.12168446
000380 5e 22 35 3d 90 51 a6 3c b6 1b c9 3c 1f e1 1d 3e
       0.04422223 0.020302564 0.024549346 0.15417908
000390 d1 aa 00 3e 4a 7b a4 bd 27 cd 30 be 7c 72 66 3c
       0.12565161 -0.08031328 -0.1726576 0.014065381
0003a0 70 0f 03 3e 1f 72 42 bd e3 36 1f be b0 31 9f be
       0.12798858 -0.047472116 -0.15548281 -0.31092596
0003b0 a3 18 d1 be a1 ba 16 bf 9f 55 ec be 37 15 1c be
       -0.4083911 -0.58878523 -0.46159074 -0.15242468
0003c0 ce 0d ba bd ae 7a 18 be 63 5c a3 bc f8 e5 64 be
       -0.09084664 -0.14890549 -0.019941514 -0.22353351
0003d0 4e 50 b6 bd d4 e8 b9 3e b1 be 18 3f e0 8d 0f 3f
       -0.08902036 0.36310446 0.5966597 0.5607586
0003e0 50 95 fb 3e 84 ba 9c 3e 68 f9 25 be 36 b1 d6 3d
       0.49137354 0.3061105 -0.16208422 0.10483019
0003f0 79 ba 86 3e 13 3c 12 3e f5 b8 1a 3c 90 ac 54 3d
       0.26314142 0.14280729 0.009443511 0.05192238

conv1.bias f4 [6]
000000 30 0a ec 3e 81 89 c8 be 06 43 2c bd b9 62 6a be
       0.46101522 -0.39167407 -0.042056106 -0.22889222
000010 4f 39 50 be 20 f1 fc be
       -0.20334361 -0.49402714

conv2.weight f4 [16, 6, 5, 5]
000000 4e cf 79 3d 80 c0 de bd 1f e5 a6 bd 96 60 90 bd
       0.060988717 -0.1087656 -0.0814917 -0.07049672
000010 56 11 04 be a0 df 4d 3d 64 57 b2 3d 0a 1d b2 bc
       -0.12897238 0.050262094 0.08708075 -0.021742363
000020 48 1c 12 3c e4 8e dc bd b1 e8 b9 3d 06 2a 32 3d
       0.008917876 -0.10769442 0.090775855 0.043497108
000030 02 68 7d 3d c7 d7 97 3c c8 99 0c be ef a5 5d 3d
       0.061866768 0.018535508 -0.13730538 0.054113325
000040 66 a0 9d 3d c9 45 8e 3d a3 07 9b bd ef 16 a3 3c
       0.07696609 0.06946904 -0.07569816 0.019908397
000050 e4 0e b1 3d 11 03 8d 3c 58 06 5b 3d 76 df 01 3d
       0.08645418 0.017213376 0.053472847 0.03170725
000060 bc 01 4a bc f3 d8 41 3b bf 89 d2 bc be 32 8b bd
       -0.012329515 0.0029578775 -0.025700448 -0.06796788
000070 52 32 07 bc 6b b0 de bc c2 d5 b0 bd bf be d4 bc
       -0.008251743 -0.027183732 -0.08634521 -0.025969861
000080 22 25 9d bd ab 87 64 bd 6a 1d a2 bd 25 62 9d bd
       -0.07673098 -0.055793446 -0.079157665 -0.07684735
000090 08 8f c9 3c cd 9b d2 bd 46 72 bd bb 22 a7 9b bd
       0.024604335 -0.10283623 -0.0057814447 -0.076002374
0000a0 66 20 0a bc 6b f5 5a 3c ae 9e 7b bd 1c 48 5e bd
       -0.008430576 0.013364176 -0.061430626 -0.054267988
0000b0 8e 0b 67 bd c1 d2 3f bc 6b 94 b6 3d 15 37 4a 3d
       -0.056407504 -0.0117079625 0.08915027 0.049368937
0000c0 74 1e 6e bd 8c 32 c8 bd 94 53 8e 3d c9 42 5e 3d
       -0.05813451 -0.09775266 0.06949535 0.05426291
0000d0 51 b0 da 3c bf 63 5d 3d d9 c8 b4 3d 27 b8 9b bc
       0.026695402 0.054050203 0.08827371 -0.01900871
0000e0 d2 3a ac 3d a1 3a dc 3d d0 a3 f6 3d fc 74 d3 3c
       0.084096566 0.1075337 0.120429635 0.025812618
0000f0 e3 79 f4 3c 61 ab 50 3d 51 4e a2 3b 4a f2 05 bd
       0.029843276 0.05094469 0.0049531837 -0.032701768
000100 9d 7e 7c 3d 1d 40 29 3d 65 ce 23 3c af ec f3 ba
       0.061644185 0.04132091 0.009997939 -0.0018609966
000110 ba dc 63 3d a4 a0 c4 3d 79 3d a9 3d 94 29 4e 3d
       0.055630423 0.09600952 0.08263678 0.05033262
000120 12 2d 59 3b ef 38 18 3d 4d 15 81 3d 21 f7 51 be
       0.0033138436 0.03716367 0.06302891 -0.20504428
000130 91 b6 4b be dd a8 17 be aa 3e 2a 3d 20 9b 1c 3e
       -0.19893862 -0.1481051 0.041563667 0.1529355
000140 05 35 81 be b7 4c b3 be f5 30 c6 bd 32 44 b0 3c
       -0.25235763 -0.35019466 -0.096773066 0.021516893
000150 12 7f 13 3d 08 41 97 be 67 44 4e be 2b 30 6a be
       0.036009856 -0.29541802 -0.20143281 -0.22869937
000160 69 c1 a2 bd e2 af 13 be 70 07 83 be e9 e0 89 be
       -0.07947046 -0.14422563 -0.25591612 -0.26929405
000170 8e d7 2d be 22 0d f1 bd 1c 81 f8 3d e1 16 96 be
       -0.16976759 -0.11770083 0.12134001 -0.2931433
000180 ec af 40 be 4a 55 15 bd 7a 52 04 bd c8 ae be 3d
       -0.18817109 -0.03645829 -0.03230522 0.09310681
000190 1c 49 8c 3d 45 09 14 3d 9a a0 b5 3a e0 62 bc 3d
       0.06849882 0.036141653 0.0013857067 0.091985464
0001a0 d1 4c 05 3e 05 d7 31 bd 2a 1c bd 3c 3a 37 e7 3a
       0.13017584 -0.04341795 0.023084719 0.001764036
0001b0 a4 c5 7b 3d 05 62 8d 3d 14 2f 8a bc 4b 6a 3a bd
       0.06146778 0.06903461 -0.016868152 -0.045511525
0001c0 7e 6b c7 bc c1 bd 7d 3d 65 88 c7 b9 a4 61 e4 bd
       -0.024343248 0.06194854 -0.0003805786 -0.11151436
0001d0 64 94 69 bd c6 c1 cb 3d f2 85 b5 bc e7 0b 23 3e
       -0.057026282 0.09949069 -0.022158597 0.15922509
0001e0 08 6a 5c bd 6c d8 ca 3c e3 af ac 3d 27 3a 53 3d
       -0.053812057 0.024761401 0.08431985 0.05156913
0001f0 ca 1f 8d 3d 76 a1 36 be f6 dd 02 be eb fb 94 3d
       0.06890829 -0.1783503 -0.12779984 0.07274612
000200 ad 53 93 3e 21 f2 a1 3e a6 88 6f be 8e e6 35 be
       0.28774777 0.31630042 -0.23391971 -0.17763731
000210 3a ea d8 3d 4f ab e8 3d 77 cf 4e 3e e1 3a 28 be
       0.1059155 0.113607995 0.20196329 -0.1642871
000220 d4 d2 2d be 51 90 12 be 85 0d c4 3d 5a 22 3f 3e
       -0.16974956 -0.14312865 0.09572891 0.18665448
000230 8e 03 5d be b5 34 4b be 42 e1 ba bd 91 5c 97 3d
       -0.21583387 -0.19844325 -0.09124996 0.073907025
000240 e4 ac 41 3e 97 f4 b3 bd b1 98 72 bd 7e ed e4 3d
       0.18913609 -0.08786886 -0.05922765 0.111781105
000250 85 79 02 3e c9 9c 21 bc 05 9f 46 3e 36 74 ea 3d
       0.12741669 -0.009864041 0.19396599 0.11447947
000260 dd b6 83 3e cb 59 2e 3e 55 8a d4 3d 53 c2 fa bc
       0.2572545 0.17026441 0.10377947 -0.03061024
000270 26 f9 fb bb 88 ab d0 3d e1 53 da 3d 47 71 89 3d
       -0.007689613 0.10188967 0.1066053 0.06711059
000280 dd 33 7b 3d 05 6b c1 bd 11 8f 07 be 1d 35 5f 3d
       0.061328758 -0.094442405 -0.13238169 0.054494012
000290 18 54 c6 3d 3a 44 c3 bc bb 07 d6 bd 1b 9c f7 bd
       0.09684008 -0.023836244 -0.10450693 -0.12090322
0002a0 2f ac e7 bd 6c ac 20 3c 27 b0 92 3d ce 52 8f bc
       -0.11312138 0.009806734 0.07162505 -0.017495539
0002b0 9c ac 08 bd e9 88 0a be c9 a1 fd 3d 6d d6 30 be
       -0.033367738 -0.1352879 0.12384374 -0.17269297
0002c0 78 dd c1 bd 5f da 2d be 41 47 b2 bd dc 74 83 be
       -0.0946607 -0.16977833 -0.08704997 -0.25675094
0002d0 61 74 64 3d a9 f9 21 3d 77 fd 48 3d f9 ef 3c 3d
       0.05577505 0.039544735 0.049069848 0.046127293
0002e0 03 45 b2 bd b5 5d 2a 3d fb 83 92 3c ec 89 22 3e
       -0.08704569 0.041593272 0.017885199 0.15872926
0002f0 1f 37 e4 3d f3 3e 8a 3c 08 34 fc bb 98 76 04 3e
       0.11143326 0.01687572 -0.0076966323 0.12935865
000300 b5 75 13 3c 89 02 14 3e 49 c1 0c bd d7 6a 83 bd
       0.0090002315 0.14454092 -0.03436402 -0.064168625
000310 e2 bf aa 3c ab 10 0b 3d 9a bd ae 3d 4d 8d 8a bc
       0.02084345 0.033951443 0.085322574 -0.01691308
000320 f6 36 84 3d 0b 66 07 3e b0 c4 27 3e 4e 97 3e 3d
       0.064557955 0.1322252 0.16383624 0.046531014
000330 7f 66 fd bc 00 43 e4 3c 2a 66 2d bc f0 01 eb 3d
       -0.030932663 0.02786398 -0.01058344 0.11474979
000340 aa e1 8e 3d 02 cd 68 bc d1 71 fb bd 1e 31 3a be
       0.06976636 -0.014209034 -0.12277568 -0.18182799
000350 4d e2 29 be 74 d1 30 bd bc 90 95 3d b2 59 1f be
       -0.16590233 -0.0431685 0.073029965 -0.1556156
000360 28 7e 8e bc 05 35 f3 bd 7d 84 12 be e4 87 a4 3d
       -0.01739414 -0.11875347 -0.14308353 0.080337316
000370 b0 04 84 bd d8 fc ec 3d b4 9c b8 bd 86 86 60 be
       -0.064462066 0.115716636 -0.09014264 -0.21926317
000380 8d 84 da 3d 59 70 60 3d 5a cc 1c 3d e2 86 10 3e
       0.10669813 0.054794643 0.038280822 0.14113954
000390 57 ad e7 3d dd 20 f1 3c 60 90 1b 3e 09 7c 05 3e
       0.11312359 0.029434616 0.15191793 0.13035597
0003a0 08 80 f5 3d 85 2f 76 3e 73 16 a6 3e 07 4c 21 be
       0.11987311 0.24041565 0.32439002 -0.15751658
0003b0 d2 e8 f8 bd 6e 03 bd bd bf a5 a3 bd 1f 19 bb 3d
       -0.12153782 -0.0922917 -0.07990598 0.09135651
0003c0 c5 6a 2a be ff 64 34 be ca f6 8f be 3d a0 6d be
       -0.16642292 -0.17616652 -0.28117973 -0.23205657
0003d0 bc 5c 66 be a1 a1 b3 bd 7a 8f 0c be cb 3e 55 be
       -0.22496313 -0.08771063 -0.13726607 -0.20824735
0003e0 b3 41 44 be b1 01 a3 bd 47 92 4a be a6 13 4b be
       -0.19165687 -0.07959307 -0.19782363 -0.19831714
0003f0 bb 97 e5 bd 1e 17 e3 bd ac 03 35 be 9a 2e 2d 3d
       -0.11210581 -0.11088394 -0.17677182 0.04228077

conv2.bias f4 [16]
000000 cb 2e 54 3e 95 1b 50 bf e1 fb 68 be 15 e4 42 be
       0.20720975 -0.81292087 -0.22752334 -0.19032319
000010 4d 6a 32 3e 96 42 8d 3e d1 98 60 3f bd 60 dc bd
       0.17423363 0.27589864 0.8773318 -0.10760639
000020 56 aa 9b 3c 3b a5 67 3e d0 4e 28 3e e7 c6 18 3d
       0.019002121 0.22621624 0.16436315 0.037299063
000030 48 da 52 bf 6f d8 26 3f 89 70 9e 3d 68 e7 43 3e
       -0.8236432 0.65174 0.07736308 0.19131243

fc1.weight f4 [120, 400]
000000 9e 51 3a 3d f5 0a 70 3d 01 33 a5 3b c4 6f d5 bc
       0.045487992 0.0586042 0.0050414805 -0.02605427
000010 ff 03 82 bc b5 6a 40 3d bb 22 06 3c 3c 98 0b bd
       -0.015871046 0.046976764 0.008186991 -0.03408073
000020 e8 68 f3 bc d2 b4 e8 3c d1 99 04 3d d9 3c 6b bc
       -0.02971311 0.028406534 0.032373253 -0.014357769
000030 94 23 14 3c f4 66 93 3c 79 de 46 bd 66 97 26 3d
       0.009041686 0.017993428 -0.04855201 0.04067173
000040 17 8c da bc 9e 8e f4 bc c2 dd 59 3d 5a 4e 91 3c
       -0.026678128 -0.029853161 0.05319 0.017737556
000050 c6 38 1c bd 4f af 03 bd 1d 83 6e 3b 7f bb fa 3c
       -0.03814008 -0.03214961 0.0036394068 0.030606983
000060 38 52 09 bc b5 78 87 bd c4 04 9f bd f7 03 28 bd
       -0.008381419 -0.0661482 -0.07764581 -0.041019406
000070 b8 de 6d bd 1c 8d c5 bb d5 60 8c 3c 4b 9e 2f bd
       -0.05807373 -0.0060287844 0.017136017 -0.04287557
000080 3f bd af bc 16 ab 9d bd bb 0a e7 bc 4b ee 3e bd
       -0.021452544 -0.07698648 -0.028203359 -0.046613973
000090 6b 73 1d 3d 5b af de 3c 53 ad 69 bd 79 f5 7e 3c
       0.03844015 0.027183225 -0.05705006 0.015561455
0000a0 e1 42 7d 3c 82 07 5d 3d 40 d0 b3 3c 83 4a e4 3b
       0.01545784 0.053962238 0.021949887 0.0069668903
0000b0 6a 19 a1 bc 97 91 1c bd 1c d6 c9 3c 95 af fa bc
       -0.019665439 -0.038224783 0.024638228 -0.030601302
0000c0 74 23 88 3c ff d2 17 3d 1a 3e 1f 3d 92 fe 94 3c
       0.016618468 0.037066456 0.038877584 0.018187795
0000d0 e3 30 a8 3d c8 2f b1 3d 40 d7 16 bc 31 aa f2 bb
       0.082124494 0.08651692 -0.009206593 -0.0074055423
0000e0 a1 9f ad bb 20 68 a0 bc be fc 19 3d 7b a0 a0 3d
       -0.0052985703 -0.0195809 0.03759455 0.07843109
0000f0 50 02 3d bd 3d 67 bd 3c a9 8e a1 bc c7 ce ec 3c
       -0.046144783 0.023120517 -0.019721346 0.028907193
000100 ba d9 9b bc 35 a8 a5 3a 87 a2 fd 3c 3b 09 8e 3c
       -0.019024719 0.001263863 0.030961288 0.017338386
000110 4a 8b 3f 3d 37 0a 04 3d a4 8c 8a bc 36 1d f0 3c
       0.046763696 0.032236304 -0.016912766 0.029310804
000120 89 e2 f1 3c 3e 22 46 3c ae 11 e5 bc cd 0b 29 3c
       0.029526966 0.012093125 -0.027962532 0.010317755
000130 97 84 b2 bc 3e 62 28 3d 98 05 08 bd 07 87 39 ba
       -0.02179174 0.041109316 -0.03320846 -0.00070773106
000140 bf 25 f8 bc 67 f0 c2 3c b9 08 11 bd 63 37 f2 bc
       -0.030291436 0.023796273 -0.03540871 -0.029567426
000150 be 37 c0 3b 76 95 00 bd b6 c0 3b 3c e0 a1 e4 bb
       0.00586602 -0.031392537 0.01145952 -0.006977305
000160 b8 17 07 bc 6d 4d 2b bb cb 70 b4 3b 42 a5 19 bd
       -0.008245401 -0.0026138679 0.00550661 -0.037511118
000170 33 d4 88 3d de b2 a9 3b d9 68 c3 bc f2 f7 59 3c
       0.06681099 0.0051787933 -0.023853706 0.013303744
000180 8a 65 5d 3d da 85 ac bc 10 91 b9 bc bc 61 0e bd
       0.054051913 -0.02105992 -0.022652179 -0.034761176
000190 bc a4 41 3d 78 db 0f bd 54 3a 04 3d 1f b8 a2 bb
       0.047276244 -0.03512141 0.03228219 -0.0049657966
0001a0 4e b3 3d bc 7e 5b 29 bd c5 56 3b bd 54 c3 95 bb
       -0.011578394 -0.04134702 -0.045737047 -0.004570404
0001b0 c7 e5 d8 bc 21 43 08 3d 62 67 a7 3b 20 43 4a bd
       -0.026476754 0.033267144 0.0051087597 -0.04938042
0001c0 8f 22 42 bd 2d 4d c7 bc f3 54 32 3d 4d 0b 1c bd
       -0.04739624 -0.024328792 0.043538045 -0.038096715
0001d0 71 08 4b bc 18 34 65 3c d4 e8 85 3c 13 59 77 3c
       -0.012392149 0.013989471 0.016346373 0.015096921
0001e0 42 ad 22 3d 31 1f 9f bc 11 1f 57 bd 9e 2c 0b 3c
       0.039716013 -0.019424053 -0.05251986 0.008494524
0001f0 0c 4f 46 bc 81 17 25 bd 4d 93 93 bc 93 13 f2 bc
       -0.012103807 -0.04030562 -0.018014574 -0.02955035
000200 82 23 83 bd a2 01 8f bc e6 1d 49 3d 23 d4 d7 bc
       -0.06403257 -0.017456833 0.04910078 -0.026346272
000210 fa 3a 0c 3d 7b da a1 bb f4 0b e9 bc 04 aa 1f 3d
       0.034235932 -0.004939375 -0.028448083 0.0389805
000220 cc 76 44 bd 31 cd f1 3c f7 15 50 bd 40 15 03 bd
       -0.047964856 0.029516788 -0.050802197 -0.032002687
000230 a6 38 f9 3c c4 a7 71 bd 12 bd 0b bd d2 cb 99 bc
       0.03042252 -0.058997884 -0.03411586 -0.018773947
000240 01 39 4d 3b ce a1 d0 bc c3 c9 fa 3b 4d fa a4 bb
       0.0031314495 -0.02546778 0.0076534464 -0.005034721
000250 79 c0 35 3d c1 d7 92 3d 19 86 f5 3c 6c 1b b4 3c
       0.04437301 0.07170058 0.02997117 0.021985732
000260 a8 07 68 3c f4 d7 3b 3d 35 ef 24 3c 14 8b 73 3c
       0.014161982 0.045860246 0.010066797 0.014864702
000270 2e 3a 37 b9 01 f3 46 bd 9f e3 af 3b 1c 73 49 3c
       -0.00017473914 -0.04857159 0.0053677107 0.012295511
000280 85 a4 e7 3c 6e e9 5c bd cf 3a 1b 3d 68 eb 56 bd
       0.028276691 -0.053933553 0.03789788 -0.052470595
000290 78 b0 df bc ff df e5 3b 27 9d 83 3c a3 29 09 3c
       -0.027305827 0.007015228 0.016066147 0.008371743
0002a0 ad c0 38 bd 84 2a 68 bc 17 cb 3e 3d 5e 95 a5 bc
       -0.045105625 -0.014170293 0.0465804 -0.020212825
0002b0 26 3f 33 3c 11 c9 3e 3c 5a 61 b4 3c f7 ba 10 3d
       0.010940349 0.011644618 0.022019077 0.035334554
0002c0 d2 1d 41 bd 49 f4 f7 3c 29 4f 7c 3c 08 f2 4d 3c
       -0.04714758 0.030267851 0.015399733 0.012569912
0002d0 8b d3 1f 3d 14 f9 03 bd 47 89 83 bc 86 01 77 bc
       0.039020102 -0.03221996 -0.01605667 -0.015076047
0002e0 fa a6 b6 3c 46 c6 c5 3c 47 67 42 3d a8 4e 51 bd
       0.022296418 0.024142396 0.047461774 -0.051100403
0002f0 3f 7a 50 bd 3b 00 f6 bc 14 a0 4d 3c 31 67 5f 3a
       -0.050897833 -0.030029407 0.012550373 0.00085221516
000300 11 a9 ca bc cb 2c 44 bd a3 86 7c bc 1c 4a 6e bc
       -0.02473882 -0.04789428 -0.015412959 -0.014544036
000310 c1 b0 92 ba 5c f5 65 bd ad 75 4f ba fd d0 b7 bc
       -0.0011191593 -0.056142196 -0.00079139584 -0.02243852
000320 f9 4e 0b bd 0b 48 d6 3c 37 5d 97 3c 65 86 eb 3b
       -0.03401086 0.0261574 0.018477065 0.007187652
000330 5c bd a5 3c 18 0f a8 ba b4 80 c8 3c d7 3a 8a 3d
       0.020231895 -0.0012821881 0.024475433 0.06749504
000340 1c 8c cf 3c d7 46 19 bd a6 e5 1d bc c6 5f 8c 3d
       0.025335364 -0.037421074 -0.009637272 0.06854205
000350 17 65 8b 3d 2d ec 61 3d 93 71 b3 3b 4e 43 b6 3c
       0.06806391 0.055156875 0.0054761856 0.02224889
000360 a8 50 47 3d 2a b3 35 bd dc 02 ae 3c 84 e5 e5 bb
       0.048660904 -0.044360317 0.021241598 -0.007015886
000370 53 44 94 bc 4f 53 d0 3c ab 8a 8c 3d 3a 00 b3 3c
       -0.018098986 0.02543035 0.06862386 0.021850694
000380 f6 97 96 bc ae ab 10 bd 23 2c 36 bc bd f0 5a bd
       -0.018383007 -0.035319977 -0.011118921 -0.053452242
000390 40 b2 2a bd 36 4b 1a 3c 77 6c 8a 3c 2b 28 cd 3c
       -0.0416739 0.009417346 0.016897423 0.025043568
0003a0 7c 07 49 bc 73 07 0f bd 00 b2 32 bd 72 d2 1d 3d
       -0.012269851 -0.034919214 -0.043626785 0.038530774
0003b0 a5 36 d2 3c cf 19 1a bb cb ba 00 3d 81 46 63 bd
       0.025660822 -0.0023513918 0.03142814 -0.05548716
0003c0 a1 89 9c 3d b9 c4 dd 3c 92 95 b1 3d 5e 85 b3 3a
       0.07643438 0.027071344 0.086711064 0.0013696363
0003d0 3f 7b 94 3c 50 4c ba 3c e4 f6 73 bd 05 95 a7 ba
       0.018125175 0.022741467 -0.059561625 -0.00127855
0003e0 f1 8d 96 bc 90 af 54 3b 48 67 3b bd 85 4a ab 3c
       -0.01837823 0.0032453276 -0.045752794 0.020909557
0003f0 de 51 9f bc ae 24 b9 bb cf 6a 17 ba b0 0f 13 3d
       -0.019448217 -0.0056501245 -0.00057761086 0.035903633

fc1.bias f4 [120]
000000 9c fe 88 3c a1 7b 06 bd f9 1d 26 bc ce 0c 67 bd
       0.01672297 -0.032832745 -0.010138982 -0.056408696
000010 ef 70 98 3d ae 87 86 bc 6f 63 3b bd f5 27 09 bc
       0.074434154 -0.016422119 -0.045749124 -0.008371343
000020 e8 37 2f bd 77 34 32 bc 4a 81 17 bd 54 33 9b bd
       -0.042777926 -0.010876766 -0.036988534 -0.075781494
000030 27 9b 95 3c cd d0 04 3c 5e 6d cf bc 52 b1 b6 bb
       0.018262459 0.008106423 -0.025320705 -0.0055753374
000040 b7 e7 92 3d 21 81 9f bc 38 08 bd bd 8e 92 61 3d
       0.07173102 -0.019470753 -0.09230083 0.055071406
000050 57 18 3a 3c 21 6e 66 3c 91 b6 28 3c a7 da 8c bd
       0.011358342 0.014064343 0.0102974335 -0.06877642
000060 85 54 f2 3c a0 10 06 be 5f 77 2d bc 9d e4 5c bd
       0.029581318 -0.1309228 -0.010587542 -0.05392896
000070 e1 a2 30 3d b2 e1 b1 bd dc 62 17 bb f0 d8 37 3d
       0.043124083 -0.08685626 -0.0023099696 0.044884622
000080 f7 de 0a bc 28 ba 19 3b 00 74 84 3d 79 7a c2 3d
       -0.0084760105 0.0023456905 0.06467438 0.09496016
000090 a4 5d 6b be 13 a8 26 bd 31 24 83 3b b6 fb 5c 3e
       -0.2298494 -0.04068763 0.004002117 0.21580395
0000a0 60 95 37 bd c4 ed 3f 3b 5a 7c 50 3e 2f 14 cd 3d
       -0.04482019 0.0029286006 0.20359936 0.10013615
0000b0 82 56 21 3c fe 0c 2c bd 0d 89 0d bd 8f 2c 10 bc
       0.009847285 -0.042004578 -0.03455453 -0.008799686
0000c0 bb a3 ab 3c 25 4b 81 bc 9b 62 13 3c 42 c4 ac 3d
       0.020952096 -0.015782902 0.008995677 0.08435871
0000d0 2b 5c ad 3c 26 cc a9 bd 98 26 2f 3c 7c 7e 13 3d
       0.021162113 -0.08290891 0.010690354 0.036009297
0000e0 31 3b 83 bc 9f 7a 9f 3c 6a 34 59 3e b5 53 10 3c
       -0.016019436 0.01946765 0.212114 0.00880902
0000f0 20 0a aa 3d 6f 47 e3 bd e8 0a 14 3d 3a 97 15 3d
       0.083027124 -0.11097609 0.036143214 0.036521174
000100 ce 9f 54 be f5 37 52 bd 2a f6 3d 3e bd 52 60 3c
       -0.20764086 -0.051322896 0.18550935 0.013691601
000110 a2 5f 08 bd 7b 9c f5 bc 84 75 4c 3d e0 3b b4 3d
       -0.033294328 -0.029981842 0.04991676 0.08800483
000120 be 65 39 3e 3b d6 b8 3d 78 f8 ee 3d 33 91 5e bc
       0.18105218 0.09025236 0.116684854 -0.013584423
000130 eb a4 da bb 59 d0 dd 3d f5 d6 1b bd 24 a3 6b bd
       -0.006672492 0.10830755 -0.038046796 -0.05752863
000140 60 a9 80 3c 32 71 02 3d 8f e1 25 3e c0 64 3a bd
       0.015705764 0.031846233 0.16199325 -0.04550624
000150 b5 c3 a8 3d eb dc f1 3c b6 5a 92 bd 3c e8 b6 bd
       0.08240453 0.029524287 -0.07146208 -0.08931014
000160 41 c1 26 3e ec f4 24 bd cf 6d 11 3e 43 07 80 3d
       0.16284658 -0.04027264 0.14202045 0.06251385
000170 f7 65 e7 3d 41 3a 44 3e 31 42 89 3d b8 89 da bc
       0.11298745 0.19162847 0.06702078 -0.026676998
000180 e5 e2 5a 3d 70 43 6f bd 21 c5 0b 3c 3e 18 e5 3c
       0.05343904 -0.058413923 0.008530886 0.027965661
000190 44 3e 7f 3d 1d 73 23 bd 32 de a2 ba e8 44 32 3e
       0.06231524 -0.039904702 -0.0012425839 0.17409098
0001a0 7b 01 32 3e 5e 61 25 bc 82 f0 ae 3d c6 43 7b 3d
       0.17383377 -0.010094015 0.08541967 0.06134393
0001b0 d8 22 a2 bd b0 5f e1 3d e9 fb 02 bd 1d 3d ce 3d
       -0.07916802 0.11004579 -0.03197852 0.1007025
0001c0 72 b6 35 3d a7 84 54 3d 21 c0 2c bd 2c 24 19 3d
       0.044363447 0.05188432 -0.042175416 0.03738801
0001d0 3e 0e df bb 04 8b 6e be b7 e8 1e 3d 7d 9e 1f 3e
       -0.0068071177 -0.23295218 0.038796153 0.15587802

fc2.weight f4 [84, 120]
000000 45 fb 2f 3d 1a be 1c bd 7c 1e 7c 3d 5d ec 9f 3d
       0.04296424 -0.038267232 0.06155251 0.078087546
000010 75 b5 a0 b8 cf 86 8f bd 79 35 b4 bd 84 12 69 3b
       -7.6631935e-05 -0.070081346 -0.087992616 0.0035564015
000020 2f 35 db bc 4c be 9b bc 4b e1 5b 3d d4 2f a1 3c
       -0.026758758 -0.019011639 0.053681653 0.019676127
000030 f0 b9 56 bd 9c 57 e5 bc 90 46 a4 bd 4c 4f a0 bd
       -0.052423418 -0.027995877 -0.08021271 -0.07827625
000040 d6 1e f1 bb e6 a3 b9 bc e3 35 52 bd a1 c5 68 bd
       -0.0073584123 -0.02266116 -0.05132092 -0.0568291
000050 c9 e4 92 bd 17 c2 25 bd 1d b9 01 bd c9 d7 06 3c
       -0.071725436 -0.0404683 -0.03167068 0.008230158
000060 65 9e 4f ba 82 d2 19 3c 94 19 fa bc 99 9c 7f bd
       -0.0007920026 0.009388568 -0.030529775 -0.062405203
000070 79 90 4e bd b8 e1 3c 3c b7 88 6d bd fb 65 a8 3d
       -0.05043075 0.011528425 -0.05799171 0.08222576
000080 9a 59 ab 3d da 24 f7 3b a4 1a 67 bc cf 6d a5 3d
       0.083666995 0.007542235 -0.014105473 0.08077585
000090 17 8c 30 bd 24 2b 9a bd e7 dd 72 3c 35 9d 74 ba
       -0.04310235 -0.0752776 0.014823413 -0.0009331287
0000a0 ee 9a 43 bd 57 1b b8 3d 62 2b 81 3d 42 ef 0f 3d
       -0.047755174 0.0898959 0.06307103 0.035140283
0000b0 fd c1 a6 bd 28 85 b5 3d c7 96 ba 3b 29 2d 40 3d
       -0.08142469 0.08863288 0.0056942436 0.046918068
0000c0 72 e7 56 3d c1 c9 d4 3b 0d 52 ac bc 90 ce b3 bd
       0.052466817 0.0064937775 -0.021035219 -0.08779633
0000d0 d2 26 2c bd b2 5d 11 3d 3f 2e 32 bd cf 76 50 bc
       -0.04202921 0.035489745 -0.043501135 -0.012723639
0000e0 b8 f2 b6 bd 0c 9e b5 bb 85 b7 9f bd b0 76 f7 bc
       -0.08933014 -0.0055425223 -0.077986754 -0.030207962
0000f0 eb d9 a7 bd 3a c8 9e 3d b0 74 76 3d 5a 04 27 3d
       -0.081958614 0.07753034 0.060169876 0.040775634
000100 19 97 94 bd cb f6 41 3d 9e ff a8 bd f8 32 87 3d
       -0.07255382 0.0473545 -0.0825188 0.066015184
000110 8d bf 9c bc ce 5d 40 bd 05 a4 b1 bc 73 6b 15 bd
       -0.019134307 -0.04696446 -0.021684656 -0.036479425
000120 38 4e a6 bd 66 70 c3 bc 77 7a 91 3d d4 64 3c 3d
       -0.08120388 -0.023857307 0.071034364 0.045994595
000130 ac 80 1a 3d d3 de af 3d 14 40 8d bd 47 27 92 3c
       0.037720367 0.08587422 -0.068969876 0.017840995
000140 3c 32 92 bc f3 90 19 3d 84 ba a9 bd 4c d2 92 3c
       -0.01784622 0.03749175 -0.08287528 0.017922543
000150 56 2f bc bd 12 e7 a3 3b 9f c2 b0 bd f2 c0 b5 bd
       -0.09188716 0.005001911 -0.08630871 -0.08874692
000160 8a 71 b7 bd 0f dd 5a 3d b1 48 f7 bc b7 c8 7a bc
       -0.08957203 0.053433474 -0.03018603 -0.015306643
000170 08 e0 43 bd cc 86 00 bb 69 e9 98 bd d1 91 ea 3b
       -0.047821075 -0.0019611595 -0.074663945 0.007158496
000180 11 78 12 bc 56 ca 24 3d 3c b5 b6 bd ab 4b 68 3d
       -0.008939759 0.040232025 -0.089212865 0.056712788
000190 fc fe 98 3c bc 33 33 bd fd e3 37 bd d4 7c 89 3d
       0.018676274 -0.04375051 -0.04489516 0.06713262
0001a0 5c 4e 44 3d b3 86 aa ba d9 e7 89 3d ee 12 55 bd
       0.04792629 -0.0013010114 0.067336746 -0.052020006
0001b0 d5 ed 4a bd 36 12 04 bd 87 df 02 bd 43 74 34 bd
       -0.04954322 -0.03224393 -0.031951454 -0.04405619
0001c0 f8 4f ec 3c 58 3b e3 3c 81 3b 84 3c 6f 16 f5 3c
       0.028846726 0.027738258 0.016141655 0.029917924
0001d0 50 e2 1d bd 5c cf 26 bd 30 58 dd bb 63 aa 56 bd
       -0.038545907 -0.040725097 -0.0067548975 -0.052408587
0001e0 56 b3 12 bd 13 1d c0 3c 17 11 87 3d 92 4a 8c bd
       -0.03581556 0.023451364 0.065950565 -0.06850161
0001f0 a6 62 b5 3d 92 58 0c 3d 6f 96 15 3d 9d f4 52 3d
       0.08856706 0.034264155 0.036520418 0.051502813
000200 9c 5e 3d bc 8e 50 a1 bd a3 a4 b5 3c 53 b5 88 3c
       -0.011558201 -0.07876693 0.022173231 0.016688025
000210 53 cd 2f 3d 6a be de bd 73 fb 9b bd b5 e2 c5 bd
       0.04292042 -0.10876162 -0.076163195 -0.096623816
000220 ac 61 7b bd 27 76 78 bd 97 33 a6 3c cf 64 00 be
       -0.061372444 -0.060659554 0.020288272 -0.12538455
000230 f3 6a 96 3d 58 66 6c 3b e4 e0 89 b9 fb dc f0 3d
       0.07344618 0.0036071744 -0.00026298233 0.11760899
000240 de 56 e9 3c 05 92 92 bd 1f 7e 7e bd 51 ce f1 3c
       0.028483804 -0.07156757 -0.062131997 0.029517325
000250 db 4e a5 3c d8 44 fd 3b 80 6c 25 bd 5c a5 52 bc
       0.020179203 0.007729154 -0.040386677 -0.012856808
000260 0f ec a5 3d c2 04 17 3d d4 b8 b8 bc 6f 8c 76 3d
       0.08101665 0.03686977 -0.02254907 0.06019252
000270 56 cf 03 3d 7d d1 ac 3a f7 2a 08 3d f5 25 f8 bc
       0.032180153 0.0013184991 0.0332441 -0.030291537
000280 b8 33 a8 3d 7f b3 b9 3c e2 f4 87 3d 47 bb fa 3d
       0.082129896 0.022668598 0.066385046 0.122427516
000290 9e b3 30 3d 4c 60 dc 3c 8d 3b e3 bd d5 4d 25 3d
       0.043140046 0.026901387 -0.11095343 0.04035743
0002a0 2b cb 5b 3d 8d e2 8f 3c 0b 7a 43 3d d3 ae b3 bd
       0.053660553 0.017564083 0.04772381 -0.087735794
0002b0 0f c0 d8 3d 0b e7 9f 3b 58 c3 df bc c9 26 e5 bd
       0.10583507 0.0048798374 -0.027314827 -0.11189038
0002c0 a7 06 86 3d 41 fd d8 3b 26 53 fa 3d 02 36 99 bd
       0.065442376 0.006621987 0.122228906 -0.07481004
0002d0 1e d9 85 3d 92 ce a0 3d a8 a2 cd 3d 29 d3 1c 3d
       0.065355524 0.078519 0.1004079 0.038287316
0002e0 cf 16 fa bb 53 27 16 bd b1 f2 a2 bd 53 a3 90 3d
       -0.0076321135 -0.036658596 -0.07956446 0.070624016
0002f0 34 36 9a bc c4 8d da bc 3e b5 ac 3d cf b3 72 3d
       -0.018824674 -0.026678927 0.08433007 0.05925351
000300 d2 33 83 3d c9 77 f1 3c 2b 60 b7 3d 00 17 40 bc
       0.06406368 0.029476063 0.089538895 -0.011724234
000310 cb 10 92 3d fe 18 5c 3d 75 cd 0e 3d 26 d4 90 3d
       0.07132109 0.053734772 0.034863908 0.07071714
000320 33 b0 4f 3d 28 6e 84 bd 99 93 4b 3d 84 51 a0 3c
       0.050705146 -0.06466323 0.049701307 0.01957012
000330 07 50 bf 3a d7 1a 07 bd 62 f9 bb bc 36 cd 1d 3d
       0.0014595994 -0.03298458 -0.022946063 0.038525783
000340 03 ef 5c bd ef d3 6f bc 57 45 f9 bc f7 34 cf bd
       -0.053938877 -0.014637931 -0.030428572 -0.10117524
000350 93 51 1d bd bb 0b a3 bd 8b f5 0f 3d a6 4d 3b bd
       -0.038407873 -0.07961222 0.035146277 -0.04572835
000360 c0 30 08 bd cb 66 9d bd f3 87 13 3e ff f8 4b bc
       -0.033249617 -0.07685622 0.1440733 -0.012449502
000370 10 43 74 3d 3a 85 bf 3d da f7 32 bc 9e 56 d7 bc
       0.05963427 0.09351583 -0.01092335 -0.02628642
000380 d9 de ad 3c 3d 82 53 bd 77 fd 92 bb 9b 7f cc 3d
       0.021224426 -0.051637877 -0.004485782 0.09985276
000390 03 0c 5b bd 3d 35 af 3d cd 86 06 3e 10 4e a1 3c
       -0.053478252 0.08555076 0.1313736 0.019690543
0003a0 56 08 9f 3d fc 76 06 3d 8c 97 46 bd db 86 7b bd
       0.07765262 0.032828316 -0.04848437 -0.061407905
0003b0 ba 5e bc ba ca 1e 66 3d 93 5e 13 3d de 29 f5 3b
       -0.0014371492 0.056181706 0.035978865 0.0074817976
0003c0 52 73 86 3c 87 ed 81 bc ab fc 85 3c d3 77 4a 3c
       0.01641241 -0.015860332 0.016355833 0.01235767
0003d0 ce 02 92 bb 00 cb 62 bd 05 e2 90 bb 3a 62 b1 bd
       -0.0044559008 -0.055369377 -0.004421475 -0.08661313
0003e0 44 83 25 3d 3c 67 9c bc 0e 58 0b bc 52 25 7c bd
       0.040408388 -0.019092195 -0.008504881 -0.06155903
0003f0 67 14 0c bd 9d c4 ac bb a7 b2 33 bd c4 6c 40 b8
       -0.034199145 -0.0052724616 -0.043871548 -4.5877663e-05

fc2.bias f4 [84]
000000 96 26 ad 3c e5 12 8c 3c e6 b6 8c bd 98 ef b4 bc
       0.021136563 0.017098853 -0.068708226 -0.022086903
000010 9c db 91 3e e3 b3 51 3b 91 46 0d 3e 9b 22 fa 3d
       0.2848786 0.003199809 0.1379645 0.12213632
000020 8d ac 71 3d 68 71 ee bd 35 dc 33 3e da f9 e6 bb
       0.059002448 -0.11642724 0.17564471 -0.0070488276
000030 ee 7c 44 bd 92 c9 cf 3d 71 12 5b 3e a1 db a5 bd
       -0.047970705 0.10145868 0.21393754 -0.080985315
000040 f7 c6 6b 3e 37 ed c3 3b df 68 90 3e be 53 24 bd
       0.23025118 0.005979206 0.2820501 -0.040118925
000050 37 2d 05 be d7 36 18 3c 04 c0 ed 3c 5d 7f f9 bd
       -0.1300553 0.009290419 0.029022224 -0.12182496
000060 ec b5 02 3e ec 6b 90 bd 0a 03 bf bd 6e 9f 06 be
       0.1276471 -0.070518345 -0.093267515 -0.13146755
000070 bd 97 8d 3c 56 0e 11 3f e8 1b cb 3d 52 49 b2 3d
       0.017284269 0.566625 0.09917432 0.08705391
000080 29 ae e4 bc f4 e4 bc 3c 61 07 97 bc 02 aa 24 bd
       -0.027915077 0.023058392 -0.018436136 -0.040201195
000090 bf 85 a1 bd ef 32 69 3e bc 11 1c bd db 5a 8f 3d
       -0.07886838 0.22773336 -0.03810285 0.06999751
0000a0 d7 0f 7e 3e f8 4f 36 bc 0e ea 2c bd 4c 9f 62 3e
       0.2481073 -0.0111274645 -0.0422154 0.2213108
0000b0 32 3b a3 bd c5 1e ef 3d e3 7d 89 3e 5d 9f 0d 3e
       -0.07970275 0.11675791 0.26853856 0.13830324
0000c0 67 d9 f9 3d 28 df 9c bd 69 e1 9a 3e 42 c7 62 3d
       0.12199669 -0.07659751 0.302501 0.05536581
0000d0 0c c6 e3 bc e4 22 0f be 4a e8 9c 3e cb 5d 14 3e
       -0.027804397 -0.13978153 0.30645972 0.14488904
0000e0 37 45 82 3d 5b 17 ff 3d f0 e6 de bb 00 79 9a 3c
       0.06360858 0.124556266 -0.0068024322 0.018856525
0000f0 f3 4f 83 bd d6 f7 4b 3c 6a d6 52 3d 4e 4e b4 3e
       -0.064117335 0.012449225 0.051474012 0.35215992
000100 0e d0 c3 bd f8 02 f0 bd ab 43 24 3e 13 41 6e bd
       -0.09561168 -0.11719316 0.16041438 -0.05816753
000110 e6 c2 34 3e 96 2d 04 bd c9 66 14 3d a0 24 5f 3d
       0.17652473 -0.032270037 0.036230836 0.054478288
000120 ef 13 d2 3c 9a 8a ae 3d 26 16 27 3e 3c ff d9 bd
       0.02564427 0.0852253 0.16317043 -0.10644385
000130 99 62 4e 3e 49 3e ee bc fa 4e 7d bd 71 6a b8 3d
       0.201548 -0.029082434 -0.061842896 0.09004677
000140 0c a5 c8 3d d5 b1 9c 3e 77 4d ef 3d f6 01 fe 3d
       0.09797105 0.30604425 0.11684697 0.12402718

fc3.weight f4 [10, 84]
000000 7c b2 af 3d a5 1e 02 3e 79 aa 46 3d 5f 3c 14 3e
       0.08578965 0.12707002 0.04850242 0.14476155
000010 88 a3 1c 3e bd e6 98 3d ba 09 be 3d 1c 5f 89 3e
       0.15296757 0.07465885 0.09279199 0.26830375
000020 6a 41 ba 3d 67 f8 18 b9 ac 63 f0 bd 7a f6 5a 3d
       0.09094508 -0.00014588387 -0.11737761 0.053457715
000030 08 57 e8 bc 12 a3 a3 bd 65 70 04 be c8 3b d5 3d
       -0.028361812 -0.079900876 -0.129335 0.10411793
000040 97 4e f6 3d 69 2b af bd 02 28 f1 3d d9 65 34 3e
       0.120267086 -0.08553202 0.11775209 0.17616977
000050 dd b9 9c bd a1 03 12 3e f4 85 bc bd d7 6b a9 3d
       -0.07652638 0.14259197 -0.09205237 0.08272522
000060 a2 01 a2 bd 25 af ce 3d 9f 9c 23 3e b0 66 6c 3c
       -0.07910468 0.10092 0.15977715 0.0144287795
000070 44 7d 34 3e 29 ab 76 be 15 c3 43 3d 8f e8 cc bd
       0.1762591 -0.2408873 0.047793467 -0.100052945
000080 08 cc c4 3d 4f 01 52 be 4f fc e9 3d 1b e8 5b 3d
       0.096092284 -0.20508312 0.11425077 0.05368815
000090 e5 ba 0f 3e bc f4 ef 3d 70 4e 6a be 25 27 a8 3d
       0.14036138 0.11716601 -0.22881484 0.08210591
0000a0 ed b6 40 3d 3c 0e aa bb 11 f8 84 3d 5b ca 8a 3e
       0.04704945 -0.005189685 0.064926274 0.2710751
0000b0 c2 d6 54 bd 63 8b b0 bd 17 27 22 3e ae 82 e1 bb
       -0.05196262 -0.08620336 0.15835224 -0.0068820333
0000c0 24 e1 65 bd fa 51 90 bd 40 88 55 be c9 3c 1f be
       -0.056122914 -0.07046886 -0.20852757 -0.15550531
0000d0 69 9f e5 bd eb 26 44 3e 82 42 cd bc 39 fe 18 3e
       -0.11212046 0.19155471 -0.025056127 0.14940728
0000e0 7b 83 72 ba 2a 98 02 be 80 d7 26 be 46 25 62 3e
       -0.00092511595 -0.12753358 -0.16293144 0.22084531
0000f0 a9 82 f4 3d ad 4b f6 bd 6c 63 cb bd 5e ca 81 be
       0.11938984 -0.12026153 -0.099310726 -0.25349706
000100 68 7b d5 bc a9 8d 8b 3c e5 87 22 3d f7 27 a5 bd
       -0.026059821 0.017035322 0.03968038 -0.08064263
000110 01 c9 cb bc 83 dc fe bd bf 31 bd bd 8f ed d1 bd
       -0.02487612 -0.12444403 -0.09238004 -0.10250389
000120 6a 3c b1 3d fe 95 34 3c 54 b6 28 3d 75 86 31 be
       0.08654101 0.011022089 0.041189507 -0.17336448
000130 da 43 25 be c9 c6 d2 3d 8e 0b 6c 3d 4f ea 29 3c
       -0.16139165 0.102918215 0.057628207 0.010370805
000140 a9 a6 12 be e1 f0 79 3d aa 82 6d 3e 40 1a bc bd
       -0.14321388 0.061020736 0.23194376 -0.09184694
000150 37 75 12 3d bd 88 d8 3d 1b 07 cf 3d 9f 23 14 be
       0.035756316 0.10572956 0.10108777 -0.14466713
000160 b0 6b ef bd 21 7d b0 3e 3c 51 d4 bd fd 0a 70 3e
       -0.11690462 0.34470466 -0.10367057 0.23441692
000170 f1 e8 11 be 56 e7 5e 3d 7e 8c d1 3c fe a8 5e bd
       -0.14249016 0.054419838 0.025579687 -0.054360382
000180 91 7c 56 3e ee 4b 98 3c cc 37 4a be 61 85 3f 3e
       0.20945956 0.018590894 -0.19747847 0.18703224
000190 00 a9 1f bc 47 e5 21 bd 33 e1 bf 3d 4d 22 33 3e
       -0.009744883 -0.039525297 0.09369125 0.17493553
0001a0 4b ca cd 3d 3c 4d 53 bd 00 0a 7e 3d 79 68 99 b9
       0.1004835 -0.05158733 0.062021255 -0.00029260272
0001b0 06 ab 15 be 4a a2 4c bd 8b 07 1c 3e 4a 01 85 3e
       -0.14616022 -0.04995946 0.15237252 0.25977546
0001c0 d5 27 9b bd cd 49 a9 be a0 48 bd 3c 32 c5 83 bd
       -0.07575957 -0.33064118 0.02310592 -0.064340964
0001d0 81 72 8a 3c c2 12 38 3e b3 4d df bd 16 8a 19 3d
       0.016900303 0.17975906 -0.10903492 0.037485205
0001e0 38 59 a3 bd 68 e1 93 bc 5a 83 8d bc e5 f6 4f 3e
       -0.079760015 -0.018051818 -0.017274547 0.20309027
0001f0 af de cc 3d 60 34 08 bd c8 ae c8 3c 33 f0 59 3e
       0.10003411 -0.033253074 0.024497405 0.21283035
000200 7d fe 57 bb 6f 7d 4c 3d 2b 83 95 be 7a 65 ab be
       -0.0032958083 0.04992431 -0.29201636 -0.33475858
000210 ca ba 64 3e 18 1a c1 3d f6 82 93 be 9d da 44 3e
       0.2233688 0.09428805 -0.28810853 0.1922402
000220 d3 af dc 3d 17 1c 06 3e 2f ca f8 bc c3 0d 8f be
       0.10775723 0.13096653 -0.030369846 -0.27940187
000230 d1 ed af bd 5d e0 5a 3e f1 83 09 bd fe 36 0f be
       -0.08590282 0.2137465 -0.033573095 -0.13985822
000240 64 2c 6a bd d0 d9 90 be 68 28 6b 3d 10 9d ed bc
       -0.05717124 -0.28291178 0.05741158 -0.029005557
000250 2c 3f 74 bd 84 d7 2a bb 8c f4 16 3e 58 70 a6 3d
       -0.059630558 -0.0026068399 0.14741725 0.081268966
000260 cd fc 82 3b f6 95 95 bc ae cd b3 bd 3d 12 4a bd
       0.0039974214 -0.018259984 -0.08779465 -0.0493338
000270 ac 0b c1 bd d1 47 31 bd 28 9f 12 3e 38 f0 20 be
       -0.09426054 -0.04328138 0.14318526 -0.15716636
000280 48 c1 76 bd db 46 e2 bc 08 b6 be 3d 00 fe 17 be
       -0.06024292 -0.027621677 0.093120635 -0.14842987
000290 cc 72 1d bd 88 b5 51 be 47 78 62 be 94 93 de 3c
       -0.038439557 -0.20479405 -0.22116195 0.02716998
0002a0 95 7a c1 bc 8a 5b 0e be 71 59 cd bc 05 78 58 3e
       -0.023618022 -0.13902107 -0.025067063 0.21139534
0002b0 16 2e 14 3e dc 4e 5b be 78 82 2c bd 1d a5 98 3d
       0.14470705 -0.21416801 -0.042116612 0.07453368
0002c0 0b b0 0d 3e 32 e8 1a 3e dc fd b3 3c 7f aa d1 bd
       0.13836686 0.15127638 0.021971636 -0.10237598
0002d0 05 8e a2 3d 0a 8e e7 3b a7 7b 6d 3d 70 c7 e8 bd
       0.07937244 0.007066493 0.057979252 -0.11366165
0002e0 95 aa 89 3e 92 3e b0 bd 6a 77 ff 3d a8 1b 28 be
       0.26887956 -0.08605684 0.12473948 -0.164168
0002f0 54 fd 4c be 07 dd 59 bd f0 8f 10 3e b5 85 ab 3d
       -0.20018512 -0.053189304 0.14117408 0.08375112
000300 76 4e f4 3b 78 f7 08 be da 3d ae bd d7 c0 ad bd
       0.0074556423 -0.13375652 -0.08507891 -0.08484047
000310 b1 d0 23 3e 82 d2 0f 3e bd 75 38 3e 75 60 26 3d
       0.15997578 0.14045146 0.18013664 0.040619332
000320 3e 34 98 bd 31 f3 da bc 3e 41 5c 3d e2 ea f4 3b
       -0.074318394 -0.02672729 0.053773157 0.0074742893
000330 b7 1d c9 3c 8a 5a 27 3c e9 a5 f3 bd 91 84 2c be
       0.024550302 0.010214457 -0.11896879 -0.16847445
000340 86 17 39 bd 8d db 8c 3d 52 2f eb 3c a3 4b 19 be
       -0.04518845 0.068778135 0.028709088 -0.1497026
000350 19 eb cb 3d ff 66 62 be e1 3b 39 3e 25 cb 2a 3e
       0.09956951 -0.22109602 0.18089248 0.16679056
000360 d4 aa 4b be d5 4a b9 3d 30 d6 8a 3d ab de 34 3d
       -0.19889385 0.09047476 0.06779134 0.044157665
000370 e0 82 b4 3b 71 85 71 3d 38 cf 99 3e ed bd 77 3e
       0.0055087656 0.05896515 0.30040908 0.24193545
000380 eb 1e 90 bd 69 1b 16 3d 42 33 70 3e 69 b3 54 3d
       -0.07037147 0.036647234 0.23457053 0.05192891
000390 61 b4 36 be f5 07 6e 3d 96 81 27 3d 3c aa 05 3e
       -0.17842247 0.058113057 0.040895067 0.1305322
0003a0 f3 24 b2 bd 01 0b 20 bc 7f 73 bf bd 19 03 14 bd
       -0.08698454 -0.009768249 -0.09348201 -0.036135767
0003b0 31 29 89 3d 6d 65 a6 3d 59 7d 38 3e 5a 16 04 be
       0.0669731 0.08124814 0.18016566 -0.12899151
0003c0 39 2e 13 3e 8b e5 0f be 7e a9 d7 3d db fb d7 bd
       0.14373101 -0.14052407 0.10530375 -0.105460845
0003d0 a4 f6 77 3c 27 2e 52 bd 02 3b 9f 3d 67 10 bd b9
       0.015134487 -0.051313546 0.07774927 -0.0003606111
0003e0 c3 d0 a7 bd f8 2f 86 3e 9e 42 9f 3d 0a 63 b7 bd
       -0.08194115 0.26208472 0.07776378 -0.08954437
0003f0 30 42 90 3c 2d 1e 9e 3d 56 db 4a 3d eb 12 6d 3e
       0.017609686 0.07720599 0.04952558 0.23151748

fc3.bias f4 [10]
000000 84 7a 8b be 32 94 c6 be 52 17 8e 3c aa 09 37 3e
       -0.2724191 -0.3878494 0.017345104 0.1787478
000010 23 18 de 3e 3c da 94 be c8 c3 2a 3e 3f cb b0 be
       0.4337779 -0.2907275 0.16676247 -0.34530064
000020 e8 fc 94 3e 3f 65 09 be
       0.29099202 -0.13417529
