transfer_1.pt (torch_old, 150886 bytes, 8 tensors)

weight f4 [32, 3, 5, 5]
00000000: ee85 c5bd 84fb 02be 4561 cabd f6ef d6bb
00000010: 0d4a c03e cf33 f0bc 9522 69be 6a8c 0e3c
00000020: eba4 0abe 34aa 1c3e cbae c3be c402 e1bd
00000030: 47f9 c8be 9e01 c6be aade 1cbe afc6 c5be
00000040: 62c1 0f3d a022 39be e37c a7bd efdd 20bd
00000050: 7f3e 41be 22b3 1ebc 6dac 74be 8578 ccbd
00000060: 948a 9cbd 295f 843d 2c23 d0bd 429c 13be
00000070: 511d 22be 63e1 7d3e 2b90 8d3e 9eee 9b3b
00000080: 39b9 8dbc 88e2 893c 0239 1f3e 28e9 0f3e
00000090: d8ca 623e 6e1e 97bd 3c64 e3bd acd5 89bd
000000a0: 496c 0cbe 32c3 83b9 72df 0abc 01e5 993d
000000b0: d3b4 c93d 2059 acbd 80b6 4c3d 2532 40be
000000c0: 75c5 393e b055 f5bd 3280 d3be ebac 6f3c
000000d0: 1d6f 593e caaa e23d 10df 953d e16b 003e
000000e0: 581c d53c 86ca 353e 20a6 943e 2145 c4bc
000000f0: c4a3 6c3e a780 b83d f318 d93d f66e 013d
00000100: 34b9 e0bd 6457 d7ba 5ced b33d 0810 893e
00000110: 2c10 9b3e 7563 413e 97bf 39bb 19c2 1f3e
00000120: b0ca edbd 3246 463e 209a 88bd a81f 37be
00000130: a277 0a3f 2e9f 01bf f1b4 e63e 0525 87be
00000140: 402f cabd 1c57 053f cd1d 1dbf 3580 2c3f
00000150: 30d5 95be 261b 68be f354 6d3e dc80 1cbf
00000160: c1bb f23e 60bc 8dbe b1b4 01be 7587 ab3e
00000170: 44e6 833d 2c7c af3e 3231 64be 9675 d2bd
00000180: b130 c43d 2f99 db3d cabd 133d ecfa 92bc
00000190: 6b49 ebbd 71e7 6e3e da07 56bf aa82 f13e
000001a0: c6a3 29bd b608 023e 409a 723e 4d36 3fbf
000001b0: 943b 713f 6887 e1bd 34f4 fe3d 0bbe 073e
000001c0: 04bd 27bf 14d2 5f3f d77e 8abe c578 ba3b
000001d0: 220a d53d ff8b f6be ed31 e43e 5c0f 2fbb
000001e0: a6ae d03c 2150 17be 75a3 9bbe 0587 413e
000001f0: 8307 46bc 34d3 8bbe 6538 cc3e 8f5f efbe
00000200: 6adf 263f 57f8 75be f826 3ebd 1ebc d83e
00000210: 15aa 2abf c7c4 303f af9f 90be 2170 3f3c
00000220: 71bb 6e3e 9b52 1cbf 4047 123f 37b4 a3be
00000230: d75a a73d ea74 7fbd e937 9fbe 5081 913e
00000240: 0cc2 c7bd 3380 1a3e 0d9e 313d 5deb 60be
00000250: 297d 543e d76c 46bd d3c9 18be ffbc bcbe
00000260: eb74 c3be 567f 143e edb7 b83e 1a92 c1b9
00000270: 6879 92be c6bc b9be 930b 2cbe 1f12 70bd
00000280: 5541 673e e204 58be 7a35 b2be 614a 9bbe
00000290: c772 4bbe e7ab 483e bb11 d33e 807f b3be
000002a0: 9aef 0cbf 778c c4be 34f1 bf3e fe09 333f
000002b0: 642f 803e ddf3 0b3c ee08 69be 4445 b8bd
000002c0: 0de1 9bbd 6bee 82be 1858 083d a814 2dbc
000002d0: 270c 8cbd aa75 8dbd 7951 49bd c5bc 703d
000002e0: da2e a4bd 7854 a3bd d7d1 5e3d 4c24 07be
000002f0: 86ac b7bd 4152 52bc 6aec 8abe ad12 b03e
00000300: 0e20 1cbe 346d 8dbe aeb5 143d b1ef 063d
00000310: dba9 dbbb 3d7c b4bd 8c8e e0bd 7e54 713d
00000320: 68d3 813e dc93 ec3e 835b 553e a4ee 243e
00000330: be99 07bf c5a3 5d3e 1a9c b73e de89 0a3f
00000340: 2c6e 9c3e 8bc4 04bd 0460 aabe 9bf9 013f
00000350: b59e 053f 0000 a93e 7933 d93e 8ea2 76bf
00000360: c713 03be ae47 af3e 40db 673e a3e7 0c3f
00000370: 84a3 5cbf 8d49 34bf 26af 00be 0a04 be3e
00000380: 66f0 043f 0bcc 8dbd 1971 823e b1d4 a03e
00000390: bca3 9bbe 23de 94bd 4164 ebbd d812 c4be
000003a0: 1c6d 3a3f 05a7 a5be 75b8 82bc 338b 793d
000003b0: 7cf8 3ebf f228 9b3d 2895 643f 611c 8cbe
000003c0: 6b31 13be b11d bb3e fcb3 59bf 4e37 133f
000003d0: 8ca4 d23e 5d4f 80bd 8bfe 073e bddf 833c
000003e0: 4007 d6be 37f9 463e 9b5a d7bd f41a dab9
000003f0: 0b37 28be 738f 9fbe 81f4 813e dae9 123e
-0.09644686 -0.12791258 -0.09881834 -0.0065593673 0.37556496 -0.02932158 -0.22767098 0.0087004695
-0.13539474 0.15299302 -0.38219294 -0.109868556 -0.39252684 -0.3867311 -0.15319315 -0.38628146
0.035096534 -0.18079615 -0.08178117 -0.039274152 -0.18871497 -0.009686263 -0.238939 -0.09983925
-0.07643619 0.06463463 -0.101629585 -0.14415076 -0.15831496 0.2479301 0.27649054 0.00475867
-0.017300235 0.016831651 0.1554909 0.14053786 0.22147691 -0.07378851 -0.111031026 -0.06730208
-0.13713183 -0.000251317 -0.008476125 0.07514382 0.098489426 -0.08415437 0.049978733 -0.18769129
0.1814173 -0.11979234 -0.41308743 0.014628629 0.21233793 0.11067732 0.073179364 0.12541153
0.026014492 0.17753038 0.29032993 -0.023958744 0.23109347 0.090089135 0.10600462 0.03159996
-0.10972825 -0.0016429243 0.08785507 0.26770043 0.30285776 0.18885596 -0.0028342956 0.15601386
-0.11610925 0.19362715 -0.06670022 -0.1788317 0.54088795 -0.50633514 0.45059922 -0.2639543
-0.098722935 0.52086043 -0.613736 0.6738313 -0.29264212 -0.22666606 0.23176937 -0.61134124
0.4740887 -0.2768278 -0.12666585 0.33501783 0.06440404 0.34274423 -0.22284392 -0.10276334
0.095796 0.10722577 0.03606967 -0.017941914 -0.11488613 0.23330475 -0.8360573 0.4717
-0.041415952 0.12698635 0.23691654 -0.7469223 0.94231534 -0.11012155 0.12448922 0.1325609
-0.6552279 0.8742993 -0.27049896 0.0056906664 0.10402323 -0.48153684 0.4456934 -0.0026712036
0.025473904 -0.1477666 -0.30398145 0.18899162 -0.012086752 -0.27309573 0.39886776 -0.46752593
0.6518465 -0.24020515 -0.046423882 0.42331022 -0.66665775 0.6905026 -0.2824683 0.011684448
0.2331369 -0.61063546 0.5713997 -0.3197343 0.08171623 -0.062367357 -0.31097344 0.2841897
-0.097538084 0.15087967 0.04336362 -0.21964784 0.2075087 -0.04844364 -0.1492074 -0.36862943
-0.3817514 0.145017 0.36077824 -0.00036920683 -0.2860825 -0.36276835 -0.1680129 -0.05861103
0.22583516 -0.21095613 -0.34806424 -0.30330184 -0.19868003 0.19596826 0.41224465 -0.35058212
-0.550531 -0.38388416 0.3748871 0.6993712 0.25036156 0.008542028 -0.22757313 -0.08997586
-0.076112844 -0.25572523 0.033287138 -0.010564007 -0.068382554 -0.06907208 -0.049149964 0.058773775
-0.08016749 -0.079750955 0.054399338 -0.1319744 -0.08968453 -0.012836994 -0.27133495 0.34389248
-0.15246603 -0.27622378 0.036306076 0.03294343 -0.006703598 -0.08812759 -0.10964689 0.05891847
0.25356603 0.46206558 0.2083569 0.16106659 -0.52968967 0.21644504 0.35861284 0.5411662
0.30552804 -0.032414 -0.3327638 0.5077149 0.5219529 0.33007812 0.42422083 -0.9634179
-0.12800513 0.34234375 0.22642231 0.5504095 -0.86187005 -0.7042473 -0.12566814 0.37112457
0.5192932 -0.06923684 0.25476912 0.3141227 -0.30398357 -0.07268932 -0.11493731 -0.38295627
0.7282274 -0.32353988 -0.015957097 0.060923766 -0.7459791 0.07576169 0.89290094 -0.273654
-0.1437432 0.3654609 -0.8504026 0.57506263 0.41141164 -0.06265137 0.13280694 0.016097898
-0.41802406 0.19431005 -0.105153285 -0.00041600282 -0.16427247 -0.3116413 0.25381854 0.1434702

bias f4 [32]
00000000: 14ae 3f3e 3a38 08be 3150 7bbf a39f f2be
00000010: 36d9 88bf a03b 81be b46e 26be 79b3 28bf
00000020: 3777 62be 0b15 d1be 4ac5 9bbe 25f0 a3be
00000030: 40f4 3bbf 97b1 97be 01bd 98bf b10b 8bbf
00000040: 429a 87be 54aa 39bf 9067 c6bf 8363 2cbf
00000050: bca5 90bf 1c8f a1bf b462 1dbf 9333 b2bf
00000060: b9f6 90be 7730 a3be bce9 afbf f018 b9bf
00000070: 2ba8 f8be 7aec ecbe c19f 35bf 0736 1fbf
0.1871875 -0.13302699 -0.9816924 -0.47387418 -1.0691288 -0.25240803 -0.16253167 -0.65898854
-0.2211579 -0.40836367 -0.30423957 -0.32019153 -0.7341957 -0.29627678 -1.193268 -1.0862943
-0.26484877 -0.72525525 -1.5500355 -0.6733934 -1.1300578 -1.2621799 -0.61478734 -1.3921989
-0.28313234 -0.31872913 -1.3743205 -1.4460735 -0.48565802 -0.46274167 -0.7094689 -0.62191814

weight f4 [16, 32, 5, 5]
00000000: de49 c7bc 2c51 28bd f5cf 20bd 3576 ffbc
00000010: 2754 ff3b dd9f 08bd 3cfb e8bc a9ce 20bd
00000020: bd64 853c b024 99bc dc4a 67bd bb10 48bd
00000030: 9d34 3bbb 8898 d0bc ed97 6b3c 08ed 34bc
00000040: 4cfb ecb9 0e18 13bd 2262 62bc 4ed4 78bc
00000050: 86c7 9abd 0df5 afbd 149b 9cbd a463 9fbd
00000060: cde3 b4bd bf57 7f3c 0fc8 cebc 9bbf d53c
00000070: 0e8a a7bc ae94 bd3c c9af d4bc 201b 8dbc
00000080: 95e0 603c 327c 86bc 890d 57bc 68ad 86bc
00000090: aeda 71bc c2c4 07bd c832 16bd 544c 5d3c
000000a0: d625 f13c a691 923b 5964 51ba e103 96bc
000000b0: e4d4 27bd 5dfc 20bb 72c6 05bb 1c16 4abc
000000c0: bd92 d33c 90ce b7bb c0ab 82bc a024 f63c
000000d0: a25d d33c 443e 82bb 4549 5abc e961 09bd
000000e0: cccc 9c3c b587 233d 2522 ad3c c9c1 18bd
000000f0: aee6 433c f641 b9bc dfea c93c ba82 d83c
00000100: 6f41 b3bb fbd3 183d d61c b0bc 7957 70bb
00000110: b6e0 6c3c 6545 0abd a64b a03c 65ff ac3c
00000120: 898f d33b ae45 3eba 5956 bcbc ecee 87bc
00000130: cc88 44bd 1580 9fbc c13b 31bd 00f6 eabc
00000140: 87f6 47bc e744 1fbd 7663 cbbc 8bc9 cebc
00000150: fe40 cdbb 7b87 5dbd 17d0 9ebc f1b3 f2bc
00000160: 3a7f 37bd 9578 1c3c bc51 713c 964b bdbc
00000170: b684 333b 0285 2cbd 6a8c 833b 38f6 d83b
00000180: 0485 6d3c c4e8 19bd c851 37bc 5076 ad3c
00000190: cbfc 823b e874 12bd 4f40 f2bc 2d37 df3b
000001a0: 76cb eebb b2a2 22bd 85aa 02bd 2861 683c
000001b0: fb3e 403c d9d1 e33c 9586 0b3c 9eef a3bc
000001c0: e643 cc38 14da 673c 0e66 c5b9 39b3 5bba
000001d0: 137f cc3c 29e1 b3bc db28 f0bc a173 c8bc
000001e0: c00f 8b3c 031d a2bc 1f41 d2bc 38c0 223b
000001f0: 8d88 0c3c 3fa3 55bb d9ed b5bc 0458 a1bc
00000200: 8817 32bc 68ea ae3c a33e 613c 0e45 f5bc
00000210: 5e2c a23c a5a4 0dbd 7058 0ebd 2990 a3bc
00000220: a51a eabc af3c ccbc f1e4 5cbb 11a8 65bd
00000230: 315e 3c3c 5826 463b fdd9 1bbd b06e ecbc
00000240: ac2b 983c 1613 b8bd 310c b5bd e66d 98bd
00000250: 3a97 a4bd de35 afbd d955 29bd 99e5 e13b
00000260: 00fe ecbc 424e 2ebd 4ee4 6abd 3890 5d3c
00000270: 9cde 7bbb 6ae6 bebc 68b1 0abd d6a8 66bb
00000280: 630f d53c 4f68 98bb e51e d03b 0042 913b
00000290: 04ea 26bc fa03 18bd d289 0b3c bc5a ac3c
000002a0: 57e8 29bd 120a 213c 69e3 ceba 5655 2abd
000002b0: f73c a43a 628f 11bd 3ebd 823c 45ce c73a
000002c0: de85 d4bc 300d c03a 866c 16bd 3c43 c73c
000002d0: 2a69 a33c fb2f b73c 9189 9e3b 4807 06bd
000002e0: 69ea 0d3c 8530 443c 73ee ffbc 84fe dfbc
000002f0: ceec f9bb f93e 4d3c 4f29 44bd d788 dc3b
00000300: e509 4cba 887d 82bd 79d7 64bd a323 053d
00000310: 08a0 07bc 6152 0cbc fd75 e73c 1345 11bd
00000320: 863c e43b 019f e13c 05d4 ffbc b877 c3bc
00000330: d745 77bd aa05 37bb 7c77 08bc 61dc 80bc
00000340: abc6 503c f7df 96bc 7789 57bc e350 29bc
00000350: c53c 9abc 6b8e 00bc d195 febc 3dfc 783c
00000360: dd9a 98bc fc1c a1bb 850b 0abd b8ae 13bd
00000370: 5625 e0bc eeb5 28bd 7d2e 64bb 8873 00bd
00000380: 6c87 ab3c adda 99bd 16a6 bbbd 50fa b6bc
00000390: 1f8f 81bb 06be 29bd 429d f8bc 91e7 773b
000003a0: cf54 25bd d3bb 173c 36ac 0bbd e833 dbbb
000003b0: abb8 b63c 651e f5bc e205 3dbc 213c 0bbd
000003c0: c35b 073c d4b3 ac3c c88f b73c e3e5 5abc
000003d0: 4f5a 693c f2bf 333c 67cb cdbc d3f2 28bc
000003e0: 149b cfbc 3121 bfbc 62d4 ccbd 68f1 84bd
000003f0: a504 98bc 6f84 52bb 051c 05bd 1361 b93b
-0.024327215 -0.041093037 -0.039260823 -0.031184295 0.007792014 -0.033355583 -0.02844011 -0.039259586
0.016283387 -0.018694252 -0.056467876 -0.04884408 -0.0028565296 -0.025463358 0.014379484 -0.011042841
-0.00045200658 -0.035911612 -0.013817342 -0.015187336 -0.07557587 -0.085916616 -0.07646766 -0.07782677
-0.08832512 0.015584885 -0.02524188 0.026092341 -0.020451572 0.023142185 -0.025962727 -0.017224848
0.0137254195 -0.016416643 -0.013125786 -0.016440108 -0.01476161 -0.033146627 -0.036669523 0.013506968
0.029436987 0.004472929 -0.000798767 -0.018312396 -0.040974513 -0.0024564483 -0.0020412472 -0.012334373
0.025826806 -0.005609341 -0.015951037 0.030046761 0.025801484 -0.003974708 -0.013323133 -0.03354064
0.019140624 0.039924342 0.021134445 -0.037294183 0.011956854 -0.02261446 0.024648128 0.026429523
-0.005470447 0.037311535 -0.021498125 -0.0036673232 0.014457872 -0.033757586 0.019567322 0.021117875
0.0064563197 -0.0007258308 -0.022990393 -0.016593419 -0.047982022 -0.019470254 -0.043269876 -0.028681755
-0.012204773 -0.03888407 -0.0248277 -0.025242588 -0.006263851 -0.054084282 -0.019386334 -0.029626818
-0.044799067 0.009550233 0.01472896 -0.023107331 0.0027392334 -0.042119034 0.0040145414 0.0066211484
0.014497045 -0.0375755 -0.011188932 0.02117458 0.0039974204 -0.03575602 -0.02957168 0.0068119974
-0.007287438 -0.03970594 -0.0319009 0.01418332 0.011733766 0.027810024 0.008515974 -0.02001172
9.740125e-05 0.014151115 -0.00037650805 -0.0008380893 0.024962937 -0.02195795 -0.029316356 -0.024469199
0.016975284 -0.019789224 -0.025665818 0.002483381 0.008577478 -0.0032598523 -0.022208141 -0.01969529
-0.010869868 0.021352008 0.013747844 -0.029940154 0.019796547 -0.034580845 -0.03475231 -0.019966202
-0.028577158 -0.02493128 -0.0033705796 -0.056068484 0.011497066 0.0030235257 -0.038049687 -0.028861374
0.018575512 -0.08988015 -0.08840216 -0.074428365 -0.08036657 -0.08555196 -0.041341636 0.0068938253
-0.02892971 -0.0425551 -0.057346635 0.013523154 -0.0038432246 -0.02330323 -0.033860594 -0.003519585
0.026008314 -0.0046511064 0.006351339 0.0044329166 -0.01018763 -0.037113167 0.008516746 0.02103936
-0.041481342 0.009829061 -0.0015784326 -0.04158529 0.0012530376 -0.03553713 0.015959378 0.0015243968
-0.02594274 0.0014652368 -0.03672459 0.024324052 0.019947607 0.022361746 0.0048381765 -0.032721788
0.008661845 0.011974459 -0.031241631 -0.027343042 -0.0076271063 0.012527221 -0.047890957 0.00673018
-0.0007783457 -0.063715994 -0.055869553 0.03250469 -0.0082779005 -0.008564563 0.028254503 -0.035466265
0.006965223 0.02754164 -0.031229028 -0.023860797 -0.06036934 -0.002792696 -0.008329269 -0.015730085
0.012742679 -0.018417342 -0.013155333 -0.010334226 -0.018827805 -0.007846455 -0.031077297 0.015196857
-0.018628532 -0.0049167853 -0.033702392 -0.036055297 -0.027361553 -0.041189127 -0.0034817748 -0.03136018
0.020938598 -0.07512412 -0.09162538 -0.022336155 -0.003953829 -0.041440986 -0.030348424 0.0037827233
-0.040364083 0.009261089 -0.03409978 -0.0066895373 0.022304853 -0.02992172 -0.011537047 -0.03399289
0.008261624 0.021081842 0.022407427 -0.013360473 0.014242723 0.010971056 -0.025121404 -0.0103118
-0.025342502 -0.023331257 -0.10001446 -0.06491357 -0.018556902 -0.0032122394 -0.032497425 0.005657324

bias f4 [16]
00000000: fbc3 1ebe ae3a 20bf c07e 4abd bd81 953e
00000010: 15f1 fcbe 89d7 a63e 3a6d 0dbe bb53 82bc
00000020: f30c 7ebd b578 dabf 4ced 90bd 1075 7d3f
00000030: f0a6 2e3e d240 0b3f 6e5e 613e 2fe5 a1be
-0.15504448 -0.6258954 -0.049437284 0.29200545 -0.4940268 0.32586315 -0.13811198 -0.015909066
-0.062024068 -1.7068087 -0.07076511 0.9900675 0.17055869 0.5439578 0.22008678 -0.31620166

weight f4 [32, 16, 5, 5]
00000000: ea40 21bd df86 d7bc 7109 c23c e36b 823c
00000010: 3d1e 443c e8ef 02bd dd14 a2bc 4458 103d
00000020: 50a3 943c 1df3 97bc 8799 6a3d 37c8 393d
00000030: 4aa8 433d 4309 dc3c 9ed3 57bc 1eda c63a
00000040: 1cb3 693c e883 14bc 6e7f 673a 1820 a63c
00000050: 92f1 073d 3a30 5cbd fa29 e2bc 8d0a 59bd
00000060: f067 32bd 84c9 bd3d 15b6 a6be 11cd c13e
00000070: 0af4 c7be cee8 48bd 64b8 af3e 1359 7ebd
00000080: 5257 843e 3d9e 36be d45c 0bbd 6939 ab3d
00000090: 641e b3bd 209a bebd d334 683e bd0f 9dbe
000000a0: 3135 debc 6373 8a3e 9c31 8e3e 94fe eabb
000000b0: 1e76 a4be c22b 3b3e 7a90 0c3e 33b1 89be
000000c0: 25cd 6dbd 9011 823c 3157 6abd de7d 0b3d
000000d0: 7aa1 ba3c 15f0 06bd f3b0 6a3d 9547 93bd
000000e0: baf2 69bd 094e 96bd a4a5 d73b e34b 0e3b
000000f0: 50d9 11bd 16a7 43bd 4b7e 67bd ac46 4dbd
00000100: c4ec b03c 6c03 4dbd f6f8 50bd e783 8dbb
00000110: 4e78 41bd e712 f8bb fdf7 c1bb 450b 33bd
00000120: 93ea 03bd 7726 4cbd 22de 843c c9bb bdbe
00000130: 65dc 173d 9a4f eb3c db07 75be 00a5 333d
00000140: 5484 233f ee74 293e 1bfa bcbe bab2 90be
00000150: 10d7 74be 032e 873c 2747 31bf fba3 35bf
00000160: 0fe5 acbf be5d 43be 21e9 00be b7bb a5be
00000170: 42cb 573d 1e4d d83d 6a86 1a3f b724 e5be
00000180: 3863 eebe 8dfe ba3e c5ae 013f 7346 79be
00000190: 7e56 54be 9fba 0b3f c2ce a93d cbc4 123c
000001a0: 3667 003f 6eeb 58bd 0230 a83e 24fa dc3e
000001b0: 34eb 08be 1e57 443e 05ec 423e 046e 5b3c
000001c0: 3b2f 19be 2f5a 8ebe 5223 0fbd fdc5 55be
000001d0: 70f7 56be a938 38bf f1aa 71be 759c ed3d
000001e0: a9c9 b73e d899 2fbf 107b 50be 81d4 e0be
000001f0: 2691 233d 933d c5b9 33fe 7c3e b1e9 783e
00000200: 70fe 7b3e 9a90 d2bd 5357 733e b3e9 e33e
00000210: dc54 60bc 023c 3c3e cde6 30bf f48d edbd
00000220: 717c b03e 2c71 363e c4ca ed3e 81dd 4c3e
00000230: 287e d03e daad a6be 28c1 40bf ea9b 1fbe
00000240: 0d1b e4bd e005 1a3e ea74 b93e 63b5 1d3f
00000250: 3787 d8bd 61e6 aabe d274 3cbf cdde d7bd
00000260: 2f2e 093f 8275 d9bd 3737 b3be 7795 8c3e
00000270: 3d50 42be edf6 023e 0c2e 90be 840a 96be
00000280: b369 143e 3929 92bd 52c6 d33e 58eb 613e
00000290: db63 bc3c fb54 fabd 6649 6dbe 25bf 533e
000002a0: 5580 df3d a07e 18bd 6c53 623e 245f c43e
000002b0: 8ee7 a23d 1f91 9dbc 3782 2d3d 41fc a73c
000002c0: 59af 633d bb6c 41bc dbc0 19bc 384e d23d
000002d0: b3f3 43bc 3a50 d93c 735b a13d a95e b03d
000002e0: 180e fe38 abb3 a63c 23ea 363d 438b 613d
000002f0: 3766 1e3d d050 863d d714 67bc 172c 1b3d
00000300: 71a4 a53c 8bc0 6a3b 0118 343d 56d7 9dbc
00000310: c64a f8bb 9af5 4e3d 8996 d3bc 962d 763d
00000320: 1278 033d bb51 043f d6b8 b0be 64a5 cd3d
00000330: 43d4 d43e 7919 bdbe 0b70 543e 2ad4 1c3e
00000340: 3a7e d83d 0d8d 8a3e 9fef 05be dba4 163f
00000350: 3902 e5bc fb39 2fbf 85a0 b53c adde 66bd
00000360: 810f 58bf 6ade 65bf b835 b8be 7c52 84bd
00000370: 689f c83e 62cd 8abf c354 b3be a288 90bc
00000380: d41b c93e 9673 83be 080a bc3d 5b62 12bf
00000390: b78b 0ebe 8978 173f e251 abbe 304b 223e
000003a0: d433 da3d a0f5 02bf ac74 303e 057b 12bf
000003b0: a20c 15be 0e9a d4be 9c5b acbf 8466 71bf
000003c0: 0d10 c03e 9357 06bf d3eb b5be b9d5 b5be
000003d0: a992 0f3f c703 273e f096 0dbf 635e 15be
000003e0: 1986 d7bc 5ddf 0e3f 16d4 21bc 3361 633d
000003f0: ec8d 02bd e293 a63c 95d2 ecbb 7c49 40bc
-0.039368547 -0.026309429 0.023686143 0.015920585 0.0119701 -0.031967074 -0.019785339 0.035240427
0.01814428 -0.018548543 0.05727532 0.045356955 0.047767915 0.026859885 -0.013173012 0.0015171205
0.014263894 -0.009064652 0.0008830939 0.020278975 0.033189364 -0.05375693 -0.027607907 -0.052988578
-0.043556154 0.09266952 -0.32560793 0.37851766 -0.39053375 -0.049050145 0.34320366 -0.062096667
0.2584787 -0.178338 -0.034024075 0.083605595 -0.08746031 -0.09306741 0.22676401 -0.3067607
-0.027124973 0.27041158 0.27772224 -0.0071714614 -0.32121366 0.18278411 0.13726988 -0.26893005
-0.05805697 0.015877515 -0.05721206 0.034055583 0.022782076 -0.032943804 0.05729766 -0.071913876
-0.057116248 -0.07339103 0.006581025 0.0021712712 -0.035607636 -0.047766767 -0.056516927 -0.050116226
0.021597274 -0.05005209 -0.051018678 -0.0043187025 -0.047233872 -0.0075706127 -0.005919455 -0.04371192
-0.03220613 -0.04984137 0.016219202 -0.3705733 0.03707542 0.02872448 -0.23928778 0.043858528
0.6387379 0.16548511 -0.36909565 -0.28261358 -0.23910165 0.016501432 -0.69249195 -0.7095334
-1.3507403 -0.19078729 -0.12588932 -0.32369778 0.052684076 0.10561584 0.6036135 -0.44754574
-0.46560073 0.36522332 0.506573 -0.2434328 -0.20736119 0.54581636 0.08291389 0.008958052
0.5015749 -0.0529589 0.32849127 0.43159592 -0.13370973 0.19173858 0.19035347 0.013392929
-0.14959423 -0.2780318 -0.034945793 -0.20876308 -0.20992827 -0.71961457 -0.23600365 0.116021074
0.35896042 -0.6859412 -0.20359445 -0.43912128 0.039933346 -0.00037620644 0.24706344 0.24307896
0.24608779 -0.10281487 0.2376378 0.44514236 -0.013692107 0.18382266 -0.69102174 -0.11599341
0.3446994 0.17816609 0.4644376 0.20006372 0.4072125 -0.32554513 -0.75294733 -0.1558682
-0.11137972 0.15041304 0.3622201 0.616049 -0.10572665 -0.3337889 -0.73615754 -0.10540543
0.53586096 -0.10618116 -0.35003063 0.27457783 -0.18975921 0.12789507 -0.2816013 -0.29304898
0.14493446 -0.07136769 0.41362244 0.22062433 0.022996834 -0.1222324 -0.2317253 0.20678385
0.10913149 -0.037230134 0.22102135 0.38353837 0.07954322 -0.019234238 0.04236051 0.020506026
0.055587146 -0.0118057085 -0.009384359 0.10268825 -0.011959958 0.026527513 0.07878771 0.08611805
0.00012114289 0.020349344 0.044656884 0.05506445 0.0386717 0.065583825 -0.01410409 0.037883844
0.020220013 0.003582033 0.043968204 -0.01926772 -0.007577273 0.050527193 -0.025828617 0.060102068
0.03209693 0.5168721 -0.3451602 0.100413114 0.41568193 -0.36933497 0.20745866 0.15315309
0.10570951 0.27060738 -0.1307969 0.588453 -0.027955161 -0.68447846 0.022171268 -0.056364704
-0.8439866 -0.897925 -0.35978484 -0.06461045 0.39184117 -1.0843928 -0.35025606 -0.017643277
0.39279044 -0.25674123 0.09181601 -0.5718133 -0.13920484 0.591683 -0.3346091 0.15848994
0.10654417 -0.51156044 0.17232007 -0.5721896 -0.145556 -0.41523784 -1.3465457 -0.9429705
0.37512246 -0.5247738 -0.35531482 -0.3551462 0.5608316 0.16310035 -0.5530844 -0.14586787
-0.02630906 0.55809575 -0.009877225 0.05551262 -0.03187363 0.020334188 -0.007227252 -0.01173627

bias f4 [32]
00000000: 6e6b b93f 317d da3e b28f 143f f87a 4e3f
00000010: 2ed5 313f 7dbc 1c3f 2519 2fbf bd28 0fbf
00000020: 6adf ae3f 04d0 0e40 8831 313e 57c3 193c
00000030: c470 b7be b958 c13f c362 2c3f ac17 c63e
00000040: 3c2c fb3c d58e 2a3e cf89 a53f 9346 2fbf
00000050: b2c9 6a3d 5435 503f f0d5 83bf 82b0 1940
00000060: 5321 843f e13f 2dbf bf35 86be c3e4 4f3f
00000070: 9f28 a43d 6e4e 48be 5117 6e3f d21e d83e
1.448591 0.42673638 0.5803176 0.80656385 0.6946591 0.6122511 -0.6839774 -0.55921537
1.366193 2.2314463 0.17304051 0.009384952 -0.3582822 1.5105201 0.673382 0.38689935
0.030660741 0.16656049 1.2932681 -0.6846706 0.057321258 0.8133137 -1.0299664 2.4013982
1.032267 -0.67675596 -0.2621288 0.8120844 0.0801556 -0.19561169 0.9300433 0.42211014

weight f4 [10, 512]
00000000: 5b47 203f 935f 4d3e ceb8 c23e 765f b5be
00000010: 7a31 83be 121b 913e c491 afbe 5e74 6dbe
00000020: fec8 98be 1832 14bf 2e43 d4bd 1684 363e
00000030: 58eb 68be 2f34 0b3d ae6e bfbe 221d cc3d
00000040: 4738 8abe cbfb 3e3e 6aaf fe3d 8c83 1bbc
00000050: 532c 6cbe 3473 893e 7da1 e4be 1608 973e
00000060: a97f c8bd e7ae 023f adf4 413e 4da0 d4be
00000070: 562a 06be 066b 1fbd 6a2d b1be 9787 a73e
00000080: 8778 9ebe 3244 4abe 539d c1bd 49bc cabe
00000090: 6bdd 123e 44af d53d 6e6c c13c 7655 c8be
000000a0: 4371 ac3e 735b 633d c96b 803d c704 36be
000000b0: 5b65 b73c 632a a2bb 0491 64be 2d86 b0be
000000c0: ad17 ca3e fe8a 2abd 58a0 61be 169e 1fbf
000000d0: 4e99 f3be f9db 33be 5ca2 9ebe 1047 ac3e
000000e0: 668d cabe e2fb 773d 5661 0a3f 433b 583c
000000f0: aec0 a0be 32ec f53e 9772 bd3e 5f88 1c3d
00000100: 3218 593e db53 3f3e bdfe 2b3e db9d d0be
00000110: 1912 b8be 3e25 96bd 922d 04be 8080 49be
00000120: b754 1a3e 72bc 1c3e d841 f6be 1b1a c5be
00000130: 4915 d7bd 1e59 bebd a006 283e 848a 813e
00000140: a055 d9be 438e 0f3e 2f9d de3e f7ea 283d
00000150: 829f a1be 6e13 21be a11a 88be 0971 713e
00000160: bb46 7b3e 8c50 8b3e 918b cf3e a6f5 44bf
00000170: c5fc 1e3e 7212 b0be ca17 94be 2b88 493e
00000180: 863f 723e dd38 6c3e dda1 6c3b 0821 063d
00000190: 9165 e63d 3c4e a6be b99e fdbe 5502 f43a
000001a0: aa20 db3d 54be 7b3d 2f59 23be ecd1 a23e
000001b0: 7aa5 dcbd 99b5 9bbe 8bbc e6bd 2253 1e3e
000001c0: bc95 afbe c387 9abe 04a8 4abe 4bba ecbd
000001d0: a3f5 293e a7b9 8dbc 1181 78bc cf48 c73d
000001e0: fc03 953e 21d1 d43d 0328 9dbe 6663 cbbe
000001f0: f768 a93d 6ce6 5b3e d064 19bf 22ed c0be
00000200: 96cf cf3e 8bd8 b9be 8fef c93e 9cdf d53d
00000210: 1a78 d3be 27e0 0bbf 3ab9 85be f0b1 33bf
00000220: 0de1 9c3c 25fc 80be f5f9 2fbe e9f3 01bf
00000230: f6fc a73d d4b4 dc3c 2293 57be 29d6 b9be
00000240: 4f99 18bd 53b9 a53c df67 983e 808b 773c
00000250: 6f19 eabc cdb4 413e 3310 023d 39e4 6f3e
00000260: b2d2 60bd 11f5 31bf abbc bebe 8214 153e
00000270: fa98 f3be b3ab 8e3b ade2 16bf 3af7 1e3e
00000280: 24ee 0b3e 3c2d 123e 8176 66be 5887 b13e
00000290: 4175 603e da03 e63d 4a88 793d 004c ddbd
000002a0: e2ab bcbc 8a89 1bbf d732 4ebe fd1e 533e
000002b0: 91ac 473e 155d 8b3e f79f 3abe 13d3 79be
000002c0: 0aee 2abe 6264 2bbf 13db 523e 78f4 bdbe
000002d0: c549 243c 16c5 693e 5e1e 083e bb9b 2abe
000002e0: 4197 59be a5cd 103e a58b 2f3e 7b7b 17bf
000002f0: fe65 b0bb 59b2 0c3e 7533 f13e 4113 523e
00000300: d65a 6dbe ca6f 433e 4e95 eab9 5e3a 3e3e
00000310: d655 06be 8696 aa3e 70a4 45be f5f2 82bb
00000320: 6979 4fbc 7089 8cbd f4d8 b63e ffad 63be
00000330: 962f b8bc 5edc 82be ea40 d6bd 000c 07bf
00000340: b1c1 e8be 90b3 37bf 39d5 45be f049 2cbe
00000350: 52be ad3d 1a08 48be 5594 5a3d e676 2c3d
00000360: 288e 1dbe 0542 8c3e befe 23bf 4488 b0be
00000370: f540 d9be 60a3 d0be 3960 90be 1e9f 8fbe
00000380: 5a1d c43e ce3c 3bbd edcd 26be 08e3 d0bc
00000390: 2619 963e ba4f b83e 1ff2 463e bdbb a73d
000003a0: e1f7 60bf 9446 f23d 9034 89be 46bc a53e
000003b0: f25f 2b3e 98a8 323e 7368 74be dfa8 b73c
000003c0: 580a cfbe 68a1 773d 3a1d 12bf d4ee 1abe
000003d0: ec6c 5abb 7f96 85be 7ef9 17bf ed0c 843d
000003e0: 9c28 aebc a5d9 b3bd 51d2 11bd 52f7 2abd
000003f0: 5d9c 5abe 4489 2bbe f4ae aa3d 835b 10be
0.6260888 0.2005599 0.3803162 -0.35424393 -0.25623685 0.28340966 -0.34290898 -0.23188922
-0.29840845 -0.57888937 -0.10364376 0.17823824 -0.22746027 0.033985313 -0.3738913 0.09966494
-0.2699606 0.18650739 0.12435801 -0.009491812 -0.23063783 0.26845706 -0.44654456 0.29498357
-0.09789974 0.5104813 0.18940993 -0.4152855 -0.13102087 -0.038920425 -0.3460496 0.32720634
-0.3095133 -0.19752577 -0.09453835 -0.39596775 0.14342277 0.1043382 0.023611274 -0.39127702
0.33680162 0.055507135 0.062705584 -0.1777526 0.022387197 -0.0049489005 -0.22320944 -0.34477368
0.39471188 -0.04163646 -0.22033823 -0.62350595 -0.475779 -0.17564382 -0.30983245 0.33647966
-0.39561003 0.06054295 0.5405477 0.013197723 -0.31397003 0.48031765 0.37001488 0.03821599
0.21200636 0.18684332 0.16796394 -0.40745434 -0.35951307 -0.07331322 -0.12908009 -0.19677925
0.15071379 0.15306261 -0.4809711 -0.3849648 -0.10502107 -0.092943415 0.16408777 0.25300992
-0.4244814 0.14019112 0.43479297 0.041239705 -0.31567007 -0.15730068 -0.26582816 0.23578276
0.245387 0.2720989 0.40536168 -0.7693733 0.15526111 -0.34389073 -0.289244 0.1968085
0.23657045 0.23068567 0.003610722 0.032746345 0.11249841 -0.32481563 -0.49535158 0.0018616418
0.106995896 0.061460808 -0.1595199 0.31800783 -0.1077375 -0.30411986 -0.112664305 0.154614
-0.34293926 -0.30181703 -0.19790655 -0.1155897 0.16597609 -0.01730044 -0.015167491 0.09730684
0.29104602 0.10391451 -0.3069459 -0.39724272 0.082719736 0.21474618 -0.5991945 -0.37680918
0.40588063 -0.36298022 0.3944058 0.10443041 -0.41302568 -0.54638904 -0.2611788 -0.70193386
0.019150281 -0.2519237 -0.17185195 -0.507628 0.08202545 0.026941694 -0.2105222 -0.36296204
-0.03725558 0.020229971 0.29766747 0.015108943 -0.02857658 0.18916626 0.03175373 0.23426904
-0.054888435 -0.69514567 -0.37253317 0.14558604 -0.4757765 0.0043539642 -0.5893963 0.15523997
0.13665062 0.14275068 -0.22506143 0.34673572 0.21919729 0.112312034 0.06092099 -0.108055115
-0.023031179 -0.6075674 -0.20136581 0.2061729 0.19499423 0.27219453 -0.18225084 -0.24396925
-0.16692367 -0.66950047 0.20591383 -0.37100577 0.010027354 0.22829089 0.13292834 -0.16660969
-0.21249105 0.14140947 0.17143114 -0.5917279 -0.005383252 0.13739909 0.4710957 0.20515157
-0.23179182 0.19085613 -0.000447432 0.18576953 -0.13118681 0.33317965 -0.19301009 -0.003996248
-0.012663224 -0.068621516 0.35712397 -0.22234343 -0.022483628 -0.25558752 -0.104616 -0.52752686
-0.45460275 -0.71758366 -0.19319619 -0.1682508 0.08483566 -0.1953434 0.053364117 0.042105578
-0.1538626 0.2739412 -0.6406058 -0.34478962 -0.4243237 -0.40749645 -0.28198412 -0.28051084
0.38303643 -0.045712285 -0.16289492 -0.025498882 0.29316062 0.35998327 0.194283 0.08190105
-0.87878233 0.11829868 -0.26797915 0.32370204 0.16735819 0.17447126 -0.23867969 0.022419391
-0.4043758 0.060456663 -0.57075846 -0.15130168 -0.0033329083 -0.26091382 -0.5936507 0.06447778
-0.021259598 -0.08781747 -0.035600964 -0.04173977 -0.2134871 -0.16751581 0.08334151 -0.14097409

bias f4 [10]
00000000: 93bd 293e 64ff 90bf 5127 2abf e9bb fa3e
00000010: b9a3 1b3f ed7b b43d 28a3 a23e 20ee 9ebe
00000020: 5685 b13d 99a3 53be
0.16576223 -1.1327939 -0.6646624 0.4897149 0.60796696 0.088126995 0.31765103 -0.3104105
0.0866801 -0.20667876
